src/pacman_dqn.pth (torch, 276473 bytes, 6 tensors)

fc.0.weight f4 [128, 400]
00000000: a9e3 a4bd 14f8 80bd 165f fcb9 5489 85bd
00000010: f165 f5bc bc2f babd d58d 253b d4fa 83bc
00000020: cdbe 13bc 7696 36bc f8bc b4bd 669e e3bc
00000030: ad10 31bb 7e66 803b 2786 23bc 16d4 9e3b
00000040: db15 26bc 922c 76bd 0ee8 03bd e3ed dcbb
00000050: 6ca8 1bbd 93bf 433e 18fa 1a3f d420 023f
00000060: e967 bd3e 9350 b13e e97e 55bd d9db c1bc
00000070: 2d48 1239 14fb 94bc 392d 3dbd 8f6b 2dbd
00000080: 3780 54bc 3336 6fba 2e17 8e3a cfe4 91bd
00000090: 9e50 aebd 6bcc 97bd d421 01bd b9b8 80bd
000000a0: 4e39 63bd b3f3 8c3e 1c2d bebd abb1 65bc
000000b0: e585 bfbd 0b62 2f3e fcff 37bd 2681 49bd
000000c0: 8751 b5bc 960c 5ebc 7b17 b9bd 92ee 2aba
000000d0: ff99 6bbc acc8 47bd ce06 07bd e650 71bd
000000e0: a4cf 0bbd 22f6 aabd 3296 c5bc 657b 553b
000000f0: 1d84 a0bd d68c 543e 9ad3 afbd 8b61 403e
00000100: eb00 043e 5dd3 3b3e 93c3 e43d a29d 3ebd
00000110: 51b9 e73c ad17 1abd 4f0c 5abc b9e9 613d
00000120: af1d 46bd 8623 ffb9 8b46 58bd d6e5 193c
00000130: ea9e 51bd 2877 93bd a8c1 94bd b2e5 53bd
00000140: 9970 ccbc 447c 1b3e d4be 7cbd 997f 2a3e
00000150: 2423 0cbc d0df 58bc 50ee 8fbc fe51 7ebd
00000160: 5020 95bd fef6 a4bd 1ea2 41bd e0dd 89bd
00000170: f7c8 11bd f9be 153d a8e3 9ebd ee31 50bd
00000180: d989 61bd 724b 97bd 6566 5dbc ad70 e8bc
00000190: 1704 b4bb 5d85 4d3e 2375 a93d a6f2 a03c
000001a0: 1bff 88bd 214f 163e f2fa a73d 2006 bc3c
000001b0: 4c11 8c3d 3213 623c 9fe3 873c 6488 a0bc
000001c0: b2ef 5d3d 21bb 5abc 966d 9fbd 281c cabc
000001d0: 01e7 b8bc 5c54 2ebd b86e 85bc a8f9 60bd
000001e0: c72b 033b 744b 6dbd 648a 37bc c2c0 6dbd
000001f0: e0a8 04bd 38ba 37bd 3aa3 a8bd 61cb 5cbd
00000200: 27aa bcbd f410 f0bb 478b 73bb 769b 1fbd
00000210: daf2 c9bc 6a14 8ebd 5277 59ba 766f b1bd
00000220: 745d 1cbd 99cc 4bbd bc30 b7bd 5c51 3fbd
00000230: 4cd1 4dbd 3065 b5bd 56b7 42bd 42d7 b3bd
00000240: d48a febc 499a 37bd 898f 0abd 0f43 9dbd
00000250: 9285 48bd ab78 13bd 32f3 8ebd d9a8 14bc
00000260: 15b6 59bd a8ff 36bd f740 83bd b971 33bd
00000270: 0204 31bd 5533 a7bd 0b87 b2bd 1637 94bd
00000280: 4d07 2ebd 42a2 93bb 2b4c bcbd 6c2e 96bd
00000290: ca01 9fbb cac4 67bd 3da3 99ba a6e5 24bd
000002a0: 9d7e 8cbd b120 96bd 0730 023b 4793 5abd
000002b0: 29d7 a5bd f1b1 85bc e613 b7bd f0a9 60bd
000002c0: cef2 76bd 0b31 43bd 2edc 99bb e9b8 cfbc
000002d0: a598 9cbd 50e2 343a 276f bcbd d8e8 85bc
000002e0: d73d d3bb 3802 81bd 852d 43bd 4634 8f3b
000002f0: 0ddc 73bc c9be 00bd df7a 1fbd f612 98bd
00000300: 8199 29bd 2a45 fbba 3826 97bd b799 aebd
00000310: bbd4 acbc e947 c0bd a9d7 b9bd 3a30 b3bd
00000320: c367 62bd 09cb 85bd 1830 f5bb f192 09bd
00000330: 4bd3 8bbc b899 04bd 4b51 99bd efd7 1cbd
00000340: cd5c bbbd 4dd3 d83a 7708 68bc 1e5b 6abc
00000350: 4129 99bc 1ae8 aabd 445f 47bd c96b 1fbc
00000360: 534c d1bc 5e70 54bd 7229 79bd 4901 90bc
00000370: 7449 89bd 696a 88bd b812 77bd 9346 0ebd
00000380: d334 bfbd e654 32bd 659a 283b 0b43 a1bb
00000390: dfdb 66bc eccc 81bd fe7d 3abd 1442 30bd
000003a0: 8f1d 57bd 6b85 bfbd 0d41 5abd 6c55 fd3a
000003b0: 3984 9cbd a126 49bc 1350 eebb 8490 acbd
000003c0: 82b8 6abd ec5b 90bd 00d1 6bbd d64e b6bd
000003d0: 8ecc 5cbc 7c6b 68bd f0e0 a1bc f0eb a1bc
000003e0: 95d3 1b3b e43d 66bd 017f e4bc 0a75 edba
000003f0: 6a90 bbbc 0e8c e9bc 8763 d4bb f1c6 bbbd
-0.08051235 -0.06297317 -0.0004813603 -0.06520334 -0.029955836 -0.09091136 0.002526154 -0.016110815
-0.009017658 -0.011144271 -0.088251054 -0.027785491 -0.0027017996 0.003918468 -0.009980715 0.00484706
-0.010137047 -0.0601011 -0.032203726 -0.0067422255 -0.038002416 0.19116049 0.6053786 0.5083134
0.3699334 0.34631786 -0.052122984 -0.023664402 0.00013950533 -0.01818613 -0.046185706 -0.042338904
-0.012970022 -0.0009125203 0.0010840648 -0.0712372 -0.0851147 -0.074120365 -0.0315264 -0.06285233
-0.055474572 0.27529678 -0.09285948 -0.01401941 -0.0935171 0.17127244 -0.04492186 -0.04919543
-0.022133602 -0.013552805 -0.09037682 -0.0006520535 -0.014379977 -0.04877536 -0.032965474 -0.05891504
-0.03413357 -0.08347727 -0.02411947 0.003257477 -0.078376986 0.2075685 -0.08585282 0.1878721
0.12890975 0.18342347 0.11170115 -0.04653705 0.028286608 -0.037620235 -0.013308599 0.055154536
-0.048368152 -0.00048663857 -0.05280165 0.009393176 -0.051176943 -0.072004616 -0.072634995 -0.051732726
-0.024956034 0.15184122 -0.061705425 0.16650237 -0.0085533 -0.013236955 -0.017569691 -0.062089913
-0.07281554 -0.080549225 -0.047273748 -0.067317724 -0.035592046 0.03655908 -0.07758266 -0.050828867
-0.055063102 -0.07387437 -0.013513182 -0.02837404 -0.0054936516 0.20070405 0.08274295 0.019646954
-0.066892825 0.14678623 0.08202161 0.02295214 0.068392366 0.013798522 0.01658803 -0.019596286
0.05418367 -0.013350279 -0.07784574 -0.02467163 -0.022571089 -0.04256092 -0.016288146 -0.05492559
0.0020015107 -0.057933286 -0.0112024285 -0.058045156 -0.032387614 -0.044855326 -0.08234258 -0.053904895
-0.092121415 -0.0073262397 -0.0037161873 -0.03896662 -0.024651933 -0.069374874 -0.0008295673 -0.086638376
-0.03817506 -0.049755666 -0.08944842 -0.04670845 -0.05024843 -0.088571906 -0.047538124 -0.087812915
-0.031072058 -0.044824872 -0.033828292 -0.07678806 -0.048955508 -0.03600375 -0.069799796 -0.00907346
-0.053152163 -0.044677407 -0.064088754 -0.043809626 -0.043216713 -0.08164088 -0.08717164 -0.07237069
-0.04248743 -0.0045054266 -0.091942154 -0.07333073 -0.004852508 -0.056584157 -0.0011721622 -0.040258072
-0.06860087 -0.07330454 0.0019865052 -0.05336311 -0.08097679 -0.0163202 -0.08939342 -0.054849565
-0.06029015 -0.047654193 -0.004695437 -0.025356727 -0.07646302 0.0006900178 -0.09200888 -0.01634638
-0.006446581 -0.06299251 -0.047650833 0.004370245 -0.014884007 -0.031431947 -0.03893554 -0.074254915
-0.04140616 -0.0019170393 -0.073803365 -0.085254125 -0.021097532 -0.09388716 -0.09074337 -0.08749433
-0.055274736 -0.065328665 -0.00748254 -0.0335874 -0.017068526 -0.03237316 -0.074862085 -0.038291868
-0.0914856 0.0016542465 -0.014162174 -0.014303951 -0.01869643 -0.08345051 -0.048674837 -0.009730288
-0.02554909 -0.051864974 -0.06083054 -0.017578738 -0.06703463 -0.06660921 -0.060320586 -0.034735274
-0.09336247 -0.043537997 0.0025726792 -0.004921322 -0.014090507 -0.06337914 -0.04553031 -0.043031767
-0.052518424 -0.09351619 -0.053284694 0.0019327826 -0.07642407 -0.012277276 -0.007272729 -0.08426002
-0.057304867 -0.07048783 -0.057572365 -0.089017555 -0.013476504 -0.05674313 -0.019760579 -0.019765824
0.0023777236 -0.056211367 -0.027892591 -0.0018116545 -0.02289601 -0.028509166 -0.006481591 -0.091688044

fc.0.bias f4 [128]
00000000: e655 abbd 0c11 86bd 532c a53c 6c01 053d
00000010: f19d 32bc 22e0 433c 51f7 983c 9bee 74bd
00000020: 7068 15bd 7f16 d2bc 187a a4bd 01f4 b23c
00000030: a310 f33c d79f 853c 669b ebbc 6a6f 6cbd
00000040: 5c3a 0c3d 88fd 83bd 99a5 79bd 1dae a1bb
00000050: b4c4 2bbd 2d34 023d f4cc 31bd 0343 833c
00000060: 2053 bd3c bb92 3abd 7de5 1abd ef78 e6bc
00000070: 46b1 513c 8e73 2e3d eb2a 4b3e c77f 22bd
00000080: 7d1a 83bd ed5d 4fbd 4338 e2bb c8dc 173c
00000090: cd2a 473c fcd5 6b3a ea3a 6abc e201 d93c
000000a0: b8ac b93c 4369 b33c 8db2 a5bd 9d2b 6abd
000000b0: b3ca a4bc 7fd9 a8bc 10c6 233d 3bd1 8ebd
000000c0: c4cf a43b db2f 2abd 2ea6 44bd 33dc 96bb
000000d0: 7598 193d bf05 273c 9077 d83c c911 80bd
000000e0: f7d1 1fbd e964 29bd 8690 abbd c0a4 103c
000000f0: 1b1b 69bd 6a1e 35bc bf03 063d dc7d 02bc
00000100: 9042 653c 4ffa 3cbd 0be3 89bd 2801 51bc
00000110: 5923 463b 5ff2 0dbd 8462 b5bc a5d2 65bc
00000120: 3d06 33bd 5a27 cabc 4b73 3abb 70dc 89bd
00000130: 0376 90bd 88c8 14be fc29 8abc 8210 5abd
00000140: fa34 c53b 0c61 8dbc 3464 08bd a7ce aa3c
00000150: 47db 48bd 4254 ff3c 779d fabb 3175 6bbd
00000160: a54c 023d c9a9 bfb9 03f6 04bd 7abe 19bd
00000170: 39e4 793d f260 f23b febb 9fbd ba62 5abc
00000180: 086b cc3c ef0f bd3a dde1 a7bc 3484 93bd
00000190: a433 2cbd df69 37bd cd90 b8ba b112 bcbb
000001a0: 6994 263d f77f 04bd 12c3 1cbd 8919 aebd
000001b0: 99c0 58bd 6623 59bd 3ee4 57bd aa16 a0bc
000001c0: b733 04bd d457 d13b ed92 88bc f4f2 95bd
000001d0: ba76 5f3c ac1a 70bd 3a50 153c 162f a1bc
000001e0: 441f 8abc 7a0b 99bb 817f 83bc 3316 883b
000001f0: 3e99 943c 79d3 9bbc 4221 80bd 880f 94bd
-0.08365993 -0.0654622 0.020162737 0.03247206 -0.010901914 0.011955293 0.018672617 -0.059797864
-0.036476552 -0.025645493 -0.080311 0.021844866 0.029671019 0.01631157 -0.028760623 -0.05772344
0.034235343 -0.064448416 -0.06094894 -0.004934086 -0.041935638 0.03178804 -0.04340835 0.016023165
0.023110926 -0.04555009 -0.037816513 -0.028133838 0.012798613 0.04259067 0.1984059 -0.03967264
-0.064015366 -0.050626684 -0.0069036796 0.009268947 0.012156201 0.0008996425 -0.014296273 0.026490156
0.022665367 0.021900779 -0.080906965 -0.0571705 -0.020116186 -0.020611523 0.03998381 -0.06973501
0.0050296504 -0.041549545 -0.048010044 -0.0046038865 0.03749891 0.010194241 0.0264242 -0.06253392
-0.039018597 -0.041356 -0.08377175 0.008828342 -0.056910615 -0.011054615 0.032718416 -0.0079645775
0.0139929205 -0.04613715 -0.06732758 -0.012756623 0.0030233471 -0.03465497 -0.022141702 -0.014027272
-0.04370712 -0.024676967 -0.0028450068 -0.06731498 -0.07053759 -0.14529622 -0.016865723 -0.0532384
0.006018278 -0.01725819 -0.033298686 0.020850493 -0.049037244 0.031168107 -0.007648166 -0.05748481
0.031811375 -0.0003655686 -0.032461178 -0.03753517 0.061008666 0.0073968107 -0.077995285 -0.013329202
0.02495338 0.0014424304 -0.020493442 -0.0720295 -0.042041436 -0.0447787 -0.001408124 -0.005739533
0.04066888 -0.0323486 -0.03827197 -0.08500964 -0.05291805 -0.053012274 -0.052707903 -0.019542057
-0.03227588 0.0063886438 -0.016671622 -0.0732173 0.013639146 -0.058619186 0.009113366 -0.019675773
-0.016860612 -0.0046705576 -0.01605201 0.004153037 0.018139478 -0.019021736 -0.062563434 -0.07229525

fc.2.weight f4 [128, 128]
00000000: 7e89 0c3e 1016 adbd bb42 fd3c c356 05bd
00000010: 618b 583d 51a5 84bd 15b4 7a3d d5a2 333d
00000020: 9160 bdbb df76 20bd 4aea de3d 31ec 82bd
00000030: 2012 b43d 4ee4 f9bc e568 be3c f33c e3bb
00000040: 55cc a5bd e87c efbc db35 ae3d 32e7 60bc
00000050: f25b ab3a abad 8e3c ecb3 5a3d b2ad 25bd
00000060: dd78 c73c 5797 31bd 49b1 9cbb 3def 1b3d
00000070: 3750 653d a85b 94bd 015d d5be 2d92 b23c
00000080: 31dc 5c3e 18e1 0abd 3e66 c73b 5c2c cc3b
00000090: 5c09 a4bd 713f 4ebc d0af 44bd 729d a93d
000000a0: 56e8 753d a301 7ebd 362e bbbb 4ea1 d73c
000000b0: cf12 853d 3a6e 53bd 37ac a53d 25e4 13bd
000000c0: 54c5 15bd 0330 8e3d bc18 44bd 9cad b23c
000000d0: 6c8d 83bd 9a3a 0c3e 6fd7 843d c0c8 2f3d
000000e0: edf0 7e3d f402 80bb bf55 45bc 6ad9 7abd
000000f0: 2f5b 843c 15e0 683e 0c4c 8a3d 0afd cf3b
00000100: 1e81 023c 4bfb 333e 89a4 1b3e 8fab 1e3e
00000110: 2a00 68bd 8ce2 423d 0ac3 9f3a 5293 51bd
00000120: 874b ca3c ee7c f1ba 079e b93d 6d2d a53d
00000130: 5121 d13d abdc 9b3e 5ad9 5e3d 47e2 023d
00000140: 02f0 8f3d 0c14 e7bc 4399 a43d b9e2 2b3b
00000150: 1a3f 673d f398 473d c31f 7f3d d57f 1cbd
00000160: 8437 553b 672d b6bb 5658 bfbc 6caf 23bd
00000170: 813d 02bd 80cd 163e d909 7ebd bd62 a7bc
00000180: cda3 27bd 1584 4f3d 0a1c ddba 214a 083e
00000190: 37af acbd 4248 a1bd 8901 223d 66d9 a3bb
000001a0: c890 a13d 0288 9ebd 3b17 f13c 93a2 da3d
000001b0: d942 de3d 8378 273d e98e 233e d9bc 3c3d
000001c0: 7171 ccbc f782 773d a91e 3d3e 7dba 953d
000001d0: 150f 1e3c 513f fbbc a504 303c 9bbf d2bc
000001e0: abd0 e8bc ff74 a93d c2d1 b43d 5c06 613d
000001f0: ea02 803d 9e8a 06bd e187 f53d 8d49 4fbc
00000200: 340e d53c e1c8 13bd 917e aeba 9ce5 19bd
00000210: 2b2f 65bd a041 5dbd 8c67 873d 6d0a 913d
00000220: 0cd9 943d 26d3 4c3b 2c3c 843d 9498 9b3d
00000230: 88c1 98bd 921b 95bb 58be b53c a4da a73d
00000240: 2d10 7c3d ff32 7a3d f9eb 2bbd d0e3 50bd
00000250: 085d 003d 9a7e 3fbc b38b 823c 0abf a5bd
00000260: cace 8a3c 1852 b3bd 023f 2f3d 5ed0 49bd
00000270: ab1e 6a3d 6b6e 7abc fcbb 403e 7389 0d3e
00000280: 2718 a63e 4e10 2c3d 40ae b13c 6d7a a23c
00000290: d260 4c3c d4ed a8bd e364 c23d 5f53 85bd
000002a0: e4e2 18bd 018a 8c3b 4bae 383d 06c8 0b3d
000002b0: 5990 903d c8df 5cbd 4c7d 363d 42df ee3c
000002c0: 5f7f 9a3d 2675 933d 40cf 97bc 1365 9bbc
000002d0: 1ac9 eabc ae7e b73d e4ed dc3c f5d1 143d
000002e0: 635f 88bd a2ee 3dbd 48d2 ae3d ffcf 3cbd
000002f0: e8bf ffbc 07b0 d9bc 0f20 b5bd 3fb2 b4bd
00000300: 948b 693d 1d97 02bc 3937 323d 923e 103e
00000310: 66d6 8ebd bee2 ac3d aaeb 9b3d 0209 1d3d
00000320: a5a6 373d a29c 053d 5990 cb3d 4e9e 773c
00000330: 5e0d 243d a7e7 f8be e33c 2d3d 5cb7 0f3e
00000340: 5d67 17bd bc84 6f3d a64a b13c 9c7b 9abd
00000350: 9b8d 6ebd e7d6 953d 6a4a 4e3d eb96 87bd
00000360: 2a1a 2fbc 96f5 18bd 2949 83bc dd86 ae3d
00000370: dbf0 57bf fd9d e43d aade 9e3d 0190 9e3d
00000380: 55a7 633d fa5b 883d fdc4 a83d e38d 153e
00000390: 25a0 83bd ad8b 2fbd d6d2 03bd 7877 a23c
000003a0: 4e09 3dbd 1cba 7abd 5a02 b1bd 0239 c93d
000003b0: a562 403d ada1 8e3d 39c6 6e3e 9cea 973d
000003c0: 657c 8ebb 045b 913d 1d43 f5bc e4ba 53bc
000003d0: e45e 243e fd50 67bd 1155 b13d 67e7 a73d
000003e0: 5be9 cd3c 2a44 2d3c 4894 383d 54e4 1bbc
000003f0: 6770 b23c 13e8 743d 137a fa3d ab47 c73d
0.13724324 -0.08451474 0.030915609 -0.032553446 0.052867297 -0.06476844 0.061206896 0.04385646
-0.005779334 -0.039175864 0.10884531 -0.06392706 0.087925196 -0.030504372 0.023243377 -0.006934756
-0.08095614 -0.029234365 0.08506366 -0.013726996 0.0013073666 0.017416796 0.053394243 -0.040448852
0.024349624 -0.04335722 -0.004781876 0.038069952 0.055984702 -0.072440445 -0.4167252 0.021798218
0.21568371 -0.033906072 0.0060851863 0.006230874 -0.08009598 -0.012588368 -0.04801923 0.082819834
0.060036026 -0.06201328 -0.005712296 0.026322033 0.06497728 -0.051618792 0.08089488 -0.036106247
-0.03656514 0.06942751 -0.04787515 0.021811299 -0.064234585 0.1369423 0.06486403 0.04291606
0.062241483 -0.003906602 -0.012044369 -0.0612425 0.016156761 0.2274173 0.06752786 0.0063473033
0.007965354 0.1757633 0.15199484 0.15495132 -0.05664078 0.047579333 0.0012188863 -0.051165886
0.024694217 -0.0018424073 0.090633444 0.08065305 0.10211433 0.30441794 0.0544065 0.031954076
0.070282 -0.028207801 0.08037045 0.0026227667 0.056456663 0.048729848 0.06228615 -0.038207848
0.003253431 -0.0055596116 -0.023357552 -0.039962217 -0.031796936 0.1472683 -0.06202111 -0.020432824
-0.040927697 0.050663073 -0.0016869318 0.13309528 -0.08431857 -0.0787511 0.039552245 -0.005000281
0.07888943 -0.07740785 0.029430022 0.1067554 0.10852594 0.040886413 0.15972485 0.046078537
-0.024956437 0.060427632 0.18468727 0.073109604 0.0096471505 -0.03066984 0.010743295 -0.02572613
-0.028419813 0.08274268 0.08829071 0.054937705 0.06250556 -0.03284704 0.119888075 -0.012651813
0.02600775 -0.036080245 -0.0013312866 -0.03757249 -0.055953186 -0.054017663 0.06611547 0.07082067
0.07267961 0.0031253784 0.064567894 0.07597461 -0.07458788 -0.004550406 0.02218549 0.08195999
0.061538864 0.06108379 -0.041973088 -0.05099851 0.03133872 -0.011687899 0.015935754 -0.080930784
0.016944308 -0.087558925 0.0427847 -0.04927098 0.057158154 -0.015285115 0.1882171 0.13821964
0.32440302 0.042007737 0.021689534 0.019833768 0.012474256 -0.08248487 0.09491899 -0.065100424
-0.037325755 0.0042889123 0.045088094 0.034126304 0.07058782 -0.053924352 0.044553086 0.029159192
0.07543825 0.07200079 -0.018531442 -0.018969094 -0.028660346 0.08959709 0.026968904 0.036333043
-0.066588186 -0.046370156 0.08536202 -0.046096798 -0.031219438 -0.026573194 -0.08844005 -0.0882306
0.057017878 -0.0079705985 0.043509696 0.14086369 -0.06974487 0.08441685 0.07613309 0.03833867
0.04483666 0.03262008 0.099396415 0.015113426 0.04005181 -0.48614237 0.042294394 0.1403479
-0.03696381 0.058476195 0.02164204 -0.07543108 -0.058240514 0.0731638 0.050363936 -0.06620582
-0.01068739 -0.037343584 -0.016026096 0.08521817 -0.8435189 0.111629464 0.077573135 0.0774231
0.055579502 0.06658168 0.082406975 0.14604907 -0.064270295 -0.042857815 -0.03218349 0.019832358
-0.04615145 -0.061212644 -0.08643027 0.098253265 0.046969075 0.06964431 0.23317803 0.07417795
-0.004348325 0.07097438 -0.029939229 -0.012922976 0.16051823 -0.05647372 0.08658803 0.08198433
0.025135687 0.010575334 0.045063287 -0.009514887 0.021782113 0.059791636 0.12230315 0.097304665

fc.2.bias f4 [128]
00000000: fa9e a2be a929 df3d 4496 413e aee1 ee3e
00000010: 75e7 223d b504 bc3e 5900 1dbe e03a 94be
00000020: b74d 96be 7f76 b7bc 9775 7cbe 5e6e 3dbe
00000030: b045 17be 8817 61bd 4df8 7a3e 88ec 9e3d
00000040: 3193 bf3e 12b7 af3d 4c64 6ebd aae4 e8bc
00000050: eefb 47bc 5e39 ddbe 25d9 f5be e428 0ebd
00000060: 73d4 493d 54d7 afbe 5e1d b4be 4c0e 103e
00000070: 3a5f 533e 1d7e a4bc 26fc 813e a074 863d
00000080: d133 813e ff22 803e 2574 c6be cf37 d8be
00000090: 811d 58bd f780 7ebc 06f2 ee3d 6a0e a8bd
000000a0: 58af a1bd 6db0 0a3d c64f b8bd 2865 7cbe
000000b0: e1d3 9fbd f4bd 82be 7c04 a0be 9cbd 74bc
000000c0: 3d9c 40bc 543e 93be 02ca 36be 08d6 06be
000000d0: bfee e7be 58e5 6c3e 823a 4f3e a33f 72be
000000e0: 8190 f9bd aba6 7a3e 33c2 023f 4c60 f0bd
000000f0: ed7b 91bd e354 b4bc 3926 813e a9fb 23bc
00000100: f25b 4f3e dee4 64bd c965 c7bd d592 7ebc
00000110: 7323 16be b926 02be 2d5b f0bd 332a 493e
00000120: e2bc bc3e 3429 333e 982a 6e3e 2c5c 293d
00000130: 852a 84be d375 dcbe 999e 15be 35fa 40be
00000140: f3b4 8b3e 6f34 cf3d e85b 2a3f c1c7 26bd
00000150: edd9 7b3e 59ad 19be 1ad4 a0be 7df7 2fbd
00000160: 2167 553e aeaf 833e d391 e9bb b5c2 d4bc
00000170: 1f10 d1be f52a 9e3e 4d3a 14be 4824 963e
00000180: b628 00bf ce38 03be d3ee 8bbe de19 abbe
00000190: ace4 d9be 7da7 2abd b5cd 78be 6f11 973e
000001a0: 51ca 83bc 2ef7 81be a5ee 133e 9805 a8bd
000001b0: 3a68 43be 09f3 87bd f8d3 2f3e cfab 213f
000001c0: c3cd 853e 1e49 dc3e 1943 df3c de9e aabc
000001d0: 2b85 1abc e846 8d3d 501e d9bd 27b5 2dbe
000001e0: f55f c6bd 6147 f7bd b5fc debe 9c32 9dbd
000001f0: 12c8 2ebd fb7d 0dbe 8568 34be 621f 8abd
-0.31761914 0.10896618 0.18904978 0.46656555 0.039771516 0.3672234 -0.15332164 -0.28951168
-0.29356167 -0.02239537 -0.24654232 -0.18499133 -0.14772677 -0.05495408 0.24508782 0.077599585
0.37416986 0.0857984 -0.05820112 -0.028429348 -0.012206061 -0.4320783 -0.4801723 -0.034706965
0.049274873 -0.3434397 -0.35178655 0.14067954 0.20641795 -0.020079667 0.25387686 0.06565213
0.25234845 0.250267 -0.38760486 -0.4223008 -0.052762512 -0.015533677 0.11667256 -0.08205874
-0.07894772 0.03385966 -0.089995906 -0.24647963 -0.078040846 -0.25535548 -0.3125342 -0.0149377845
-0.011756 -0.2875849 -0.17850497 -0.13167584 -0.45299336 0.23134363 0.20237163 -0.23657088
-0.12185765 0.24477641 0.51077574 -0.11737117 -0.07103715 -0.022013133 0.25224474 -0.010008731
0.20249918 -0.055882327 -0.09736211 -0.015537937 -0.1466196 -0.12710084 -0.117361404 0.19645004
0.36862856 0.17496186 0.23258436 0.041347668 -0.2581369 -0.43058643 -0.14611281 -0.18845446
0.2728649 0.10117423 0.6654649 -0.040717844 0.24594851 -0.15007533 -0.3141182 -0.042960633
0.20840122 0.2571997 -0.0071279793 -0.02597175 -0.40832612 0.3089215 -0.14475365 0.29324555
-0.5006212 -0.12814638 -0.27330646 -0.33418173 -0.42557275 -0.041663636 -0.24297221 0.29505488
-0.016087683 -0.25383896 0.14446504 -0.08204192 -0.19082728 -0.06638152 0.17170703 0.63152784
0.26133546 0.43024534 0.027253674 -0.020827707 -0.009431164 0.0689829 -0.10601485 -0.16963635
-0.09686271 -0.12074161 -0.43552175 -0.076756686 -0.04267127 -0.13817589 -0.17617996 -0.06744267

fc.4.weight f4 [4, 128]
00000000: b1f0 833e f1b1 b43e cfcf 0e3e 1e28 e2be
00000010: c80d ba3d 715d f93d 6784 173f e404 df3d
00000020: 94e5 8c3e d8ae c53e 846e de3e e648 a23e
00000030: b49b 7abc 5438 9e3d 12e9 b6be 3936 d43e
00000040: 26cb ad3e f4e2 fe3e a1f2 7ebd 9256 863d
00000050: ed19 0cbd 1075 ae3e 9976 043f a1b5 bf3b
00000060: bdeb 843e 4646 973e 68c8 3d3d 8390 783e
00000070: 53f4 183f 7ac9 83bd ec53 223f 2c6c 783e
00000080: 0f08 7f3e 77a4 613e c3e0 d43d c4b7 db3e
00000090: 3250 1cbd ff0e 153d dccf d93e 9c08 513d
000000a0: bd8d 93bd ca5d e63d d023 983d b68e 703d
000000b0: 40d1 a7bd 9faf cf3e 68cc da3e 8262 85bc
000000c0: 748e 473d e5da bf3e 012c c03e ce0e bb3c
000000d0: 1322 b23e 60ef b8be 90bd 723e bb7e 023f
000000e0: a2e4 99bd 175f ae3e 764d 0bbf 12e9 bc3b
000000f0: 2ec6 ebbd c566 a7bd 2970 113e c4a3 82bd
00000100: 8fa3 a73e 7222 193d 4af5 c43e 012a 6cbd
00000110: 2c11 a73d 5673 00bd 7a45 15bd 9ac7 5b3e
00000120: 2ce7 c3be 83fb a33e d27b 703e f934 af3e
00000130: 9942 8b3e 0662 9f3e f91a a1bb e8a8 c83e
00000140: af81 cb3d e3a2 a63e a717 3fbf 83cc 213d
00000150: 478e 4d3e 8efb ff3e 047a 833e d6b3 66bc
00000160: fff0 133f c42a cf3e b992 acbd 7dd4 c7bd
00000170: 80bb a83e 8f45 af3d e194 d63c 9305 83be
00000180: 405e ae3e 83b9 153d 89bc 8a3e 15e2 843e
00000190: 0b3c 153e b482 99bd c336 da3e 7ec2 463e
000001a0: d5bb 76be ae4d 933e 3125 a23e e9e2 a3bc
000001b0: 6234 d33e 1198 5a3d de95 1abe 2f75 32bf
000001c0: 1845 be3e 3e5f ddbe 3c5d e0bb 9b16 7e3d
000001d0: eb3f f2bd 47ec ac3e 5d54 bcbc f20a fcbb
000001e0: d950 03bd 0a24 ed3c 59c8 a83e 667a 823d
000001f0: bdc9 32bd 50c5 43bd 8bbe 5e3e 1845 adbc
00000200: 3c27 983e 6d51 9f3e 6751 943e 770e 01bf
00000210: dbe8 94bd dbb0 bb3e 80b5 4c3e 0028 4d3e
00000220: 889a 303e 000b 103f 4c6a a63e f9c6 3f3e
00000230: 5790 94bc 5207 cb3d b27d ffbe b914 fb3d
00000240: 6b55 ca3e 57d9 0b3e c618 62bd 1bb3 29bd
00000250: 2eed a5bd d24f dabc b2aa c03e 1686 ccba
00000260: a09b 2c3e f392 483d 2bec 233d 09dd 523e
00000270: a0de e13d 7cfe a83d 7504 8c3e 3130 063e
00000280: 45ba 933d 26db b73e 4c3d 4a3e ddb3 ba3e
00000290: f134 04bd 12f9 06bc 3f2a 1c3f aff6 b6bb
000002a0: 8275 11bd d9df 373e 6694 973d 3026 093e
000002b0: e1f7 b33a fc5d 773e 1b43 d53e b724 69bd
000002c0: 7abf 74bd 8ec0 8e3e 5147 bb3e e13a 41bd
000002d0: 5c91 b03e 964d e5be eac9 7c3e c269 953e
000002e0: 2f06 0cbc 676e 1b3e 6a9d d7be 2a99 b9bb
000002f0: 2207 88ba b6be 0dbd 3d66 ae3e ec69 6fbd
00000300: f280 963e 6892 97bc 512c b83e 24f3 183c
00000310: fcbb 13bd f1fd 46bd 35a0 453d 00d5 9c3e
00000320: 30a2 a4be 4fd0 853e 0320 b83e 4d83 f63e
00000330: dd60 a03e 97ef 293b 3455 35bd 69e4 d63e
00000340: 93ba ad3e effc 4e3e 6a2d c9be e56d febc
00000350: f207 933e 65bd 893e 7d85 ca3e 68c1 673d
00000360: 25a1 b93e c84e 913e 1367 bcbd edb1 143c
00000370: d37f 5d3e f7b0 ae3e 3cee 7e3b 19b9 e3be
00000380: 50c2 843e c1e0 80bd 7e83 c53e fc8f 813e
00000390: c16a 973e b481 253d 24b8 393e aaa9 953e
000003a0: 26bc 93be 2c67 103f f8a0 3f3e 7209 ce3c
000003b0: 02e0 023f 1f17 c13e 35f2 25be 1b1d c1be
000003c0: ad65 053f e79d 1abf 5399 353e c316 0fbd
000003d0: 1c3e 4e3c 44ba 8c3e 3734 c6bb 4c1d 373d
000003e0: 566c 613b ec71 043d 9c2c 9b3e d370 31bd
000003f0: 9721 893b 3627 543e 4085 853e e990 e73b
0.2576957 0.3529201 0.1394646 -0.44171232 0.0908466 0.12176026 0.59186405 0.10889605
0.27518904 0.38609958 0.43443692 0.31696242 -0.015295912 0.077255875 -0.35724694 0.4144762
0.33944052 0.49782526 -0.062243108 0.06559481 -0.034204412 0.34073687 0.51743466 0.0058505093
0.25961104 0.29545802 0.0463337 0.24273877 0.5974781 -0.06434913 0.63409305 0.24260014
0.24905418 0.22035395 0.103944324 0.4291364 -0.038162418 0.036391255 0.42541397 0.0510336
-0.07204769 0.112483576 0.07428706 0.05872985 -0.08194208 0.40563676 0.42734075 -0.016282324
0.04871984 0.3747169 0.37533572 0.022834208 0.34791622 -0.3612013 0.23705125 0.50974625
-0.075143114 0.34056923 -0.5441507 0.005765089 -0.11512409 -0.081738986 0.14202942 -0.06378892
0.32741973 0.037386365 0.3846839 -0.057657246 0.08157572 -0.031359993 -0.03644321 0.2146286
-0.38262308 0.32027826 0.23484734 0.34220102 0.27199247 0.31129473 -0.0049165455 0.39191365
0.099368446 0.32546148 -0.74645466 0.03950168 0.20073806 0.49996608 0.25679028 -0.014080962
0.57789606 0.40462315 -0.084264226 -0.09757326 0.3295555 0.08558189 0.026194038 -0.2559019
0.34056282 0.03655387 0.27096966 0.25953737 0.14573686 -0.07495633 0.42619905 0.1941013
-0.2409509 0.28770202 0.31669 -0.02000566 0.41250902 0.053367678 -0.15096232 -0.6971006
0.3716209 -0.43236727 -0.006847052 0.062033277 -0.11828598 0.33774015 -0.022989446 -0.0076917345
-0.032059524 0.028947849 0.32965353 0.06371002 -0.043649424 -0.047795594 0.21752374 -0.02115111
0.29717433 0.3111681 0.28968355 -0.50412697 -0.07270976 0.36658368 0.19991112 0.2003479
0.17246449 0.56266785 0.32502973 0.18728246 -0.018135233 0.099135056 -0.49900585 0.12259812
0.39518294 0.13657127 -0.055199407 -0.041430574 -0.08101879 -0.02664939 0.3763023 -0.0015603926
0.16856241 0.048968267 0.04002015 0.2059213 0.110287905 0.08251664 0.2734715 0.13104321
0.072132625 0.35909384 0.19749945 0.3646535 -0.03227705 -0.008238094 0.6100196 -0.005583606
-0.035512455 0.17956485 0.07401352 0.13393474 0.001373049 0.24156946 0.4165276 -0.05691978
-0.05975292 0.27881283 0.36577848 -0.047175292 0.344859 -0.44785756 0.24686399 0.2918225
-0.008546396 0.15178834 -0.42112285 -0.0056640105 -0.0010378102 -0.034605704 0.34062377 -0.058450624
0.29395252 -0.01850243 0.3597131 0.009335313 -0.036067948 -0.04858202 0.04824849 0.30631256
-0.3215499 0.2613549 0.35961923 0.4814705 0.313239 0.002593016 -0.04427071 0.41971138
0.33931407 0.20213674 -0.3929246 -0.031058261 0.28717 0.2690231 0.39554968 0.05658093
0.36255756 0.28380418 -0.09199347 0.009075624 0.21630792 0.34119388 0.0038899323 -0.44477156
0.259295 -0.062928684 0.38576883 0.25305164 0.29573634 0.040406898 0.1813665 0.29231006
-0.28854483 0.5640743 0.18713748 0.025150988 0.5112306 0.37712952 -0.16205676 -0.37717518
0.5210827 -0.6039719 0.1773427 -0.034933817 0.01258805 0.2748586 -0.006048705 0.044705674
0.0034396849 0.032335207 0.30307472 -0.04332049 0.0041849124 0.20718083 0.26078224 0.007066835

fc.4.bias f4 [4]
00000000: 7256 7fbe a7e6 753e 044d 243c 11f5 77be
-0.2493532 0.24013768 0.010028128 -0.24214579
