src/pacman_dqn.pth (torch, 276473 bytes, 6 tensors)

fc.0.weight f4 [128, 400]
-0.043267995 -0.048538346 -0.0006205062 0.008815978 -0.0010912708 -0.033370055 -0.05042425 -0.0028171223
-0.03378582 -0.041327696 -0.031934347 -0.06244872 -0.07654834 -0.07353885 0.015006734 -0.006746082
-0.009015122 0.011309426 -0.06569981 -0.049312312 -0.076776475 0.06683896 0.020646794 0.030447168
0.015987616 0.03162333 0.0015455496 -0.04991792 -0.01716215 -0.052393403 -0.014106628 -0.054910257
-0.06126519 -0.04614825 -0.0070386147 -0.0062276735 -0.04050456 -0.022811525 -0.069880396 -0.02335962
0.01763983 0.03940665 -0.014405388 -0.06637066 0.011445779 0.05694577 0.013683808 -0.016575415
-0.06031743 -0.03346249 -0.028162671 -0.05325592 -0.06923876 -0.054612715 -0.0025599527 0.0046655773
-0.041470822 -0.070010886 -0.050191946 -0.038799252 -0.063094586 -0.030538494 -0.012528804 -0.060072724
-0.010502111 0.0047209803 -0.049167756 -0.0038009405 -0.0025734564 0.031008303 0.027699813 0.05386656
0.0030316901 0.06152135 0.054325767 -0.001834845 0.046339214 -0.07020438 -0.017652791 0.006434297
-0.040265333 -0.05979177 -0.063820675 -0.077935375 -0.05751044 -0.0542288 0.02692263 0.016080111
-0.069218926 -0.034269825 -0.030516965 0.015366073 -0.03232356 0.084905654 -0.017758794 -0.0666843
0.08307498 -0.0140895415 -0.04926183 -0.02677422 -0.028715504 0.01526237 0.027553009 0.019626562
0.055633668 -0.015177711 0.05560542 0.056999434 -0.008444439 0.048975106 0.052594893 0.013449627
0.004010064 0.0029272398 0.0070006 0.06016372 0.01836394 -0.030706372 -0.0015208236 -0.019347593
-0.030410962 -0.059486095 -0.0019586445 -0.0007588859 0.00053066073 -0.047487985 -0.009448338 -0.045472194
-0.020083643 0.018425433 -0.075759 0.013884683 -0.009732213 -0.00748261 -0.075267754 0.009722155
-0.008107403 -0.0552298 -0.064014226 -0.0028235225 0.018732382 -0.045397628 -0.051726136 -0.056580294
-0.01583047 -0.010222991 -0.010253397 -0.053735744 -0.01491541 -0.00560218 -0.014896255 -0.043091845
-0.05044337 -0.063238144 -0.015004221 0.021638615 -0.046088714 0.0015729982 -0.043689195 -0.0701353
-0.04883213 -0.042116918 -0.054108392 0.017443165 -0.07070029 0.0046460642 -0.027772909 -0.009108413
-0.07218813 -0.057115886 -0.05025417 0.02044787 -0.008692081 -0.02489009 -0.024468826 -0.011974288
-0.05619586 -0.020932239 0.012878839 -0.010195876 -0.07640803 -0.034291737 -0.0674895 -0.07623419
-0.037986107 -0.07060592 -0.06018052 -0.01916422 -6.670436e-05 -0.047670577 -0.06540666 -0.068369545
-0.027103575 -0.048711013 -0.032076087 0.003470519 0.002410489 -0.013565058 -0.04048336 -0.012716296
-0.06475403 -0.061998766 0.0026148283 0.02195759 -0.026159124 -0.057459135 0.0026843944 -0.043960035
0.015094152 -0.05421086 -0.019215748 -0.052441206 -0.04739618 -0.040756095 -0.045502335 0.01000013
-0.0069641443 -0.042354804 0.0023808728 -0.06296499 -0.03408644 -0.0361998 -0.012605433 0.021293974
-0.0033832253 -0.052544374 -0.030073078 -0.023790395 0.015427518 -0.062929265 -0.021287646 -0.06946354
-0.06686237 -0.046784814 0.009115461 -0.00718817 0.013377238 -0.022477776 -0.061954025 -0.052675072
-0.062393274 0.012361791 -0.05215316 -0.061192263 -0.07113798 -0.015161786 -0.017880954 -0.07379605
-0.042041328 -0.06651052 -0.018602546 -0.07607205 -0.030544167 -0.046929974 -0.072436474 0.018684005
00000000: c839 31bd 25d0 46bd 77a9 22ba e470 103c
00000010: f908 8fba 0aaf 08bd a989 4ebd 789f 38bb
00000020: 0063 0abd 3b47 29bd 97cd 02bd 3bca 7fbd
00000030: 60c5 9cbd 899b 96bd cede 753c 3d0e ddbb
00000040: 2ab4 13bc 2c4b 393c 9f8d 86bd b5fb 49bd
00000050: fc3c 9dbd dde2 883d 7723 a93c 576c f93c
00000060: 76f8 823c 7787 013d 0a94 ca3a bc76 4cbd
00000070: a397 8cbc 779a 56bd 7c1f 67bc 94e9 60bd
00000080: 35f1 7abd f305 3dbd 2ea4 e6bb 8311 ccbb
00000090: 1ce8 25bd 3cdf babc 741d 8fbd ac5c bfbc
000000a0: 6881 903c de68 213d 9404 6cbc 57ed 87bd
000000b0: 1487 3b3c f83f 693d 0d32 603c 2ac9 87bc
000000c0: 690f 77bd f70f 09bd 67b5 e6bc e122 5abd
000000d0: 0dcd 8dbd 95b1 5fbd e1c4 27bb b3e1 983b
000000e0: 4fdd 29bd de61 8fbd 1296 4dbd f7eb 1ebd
000000f0: bc37 81bd dd2b fabc 9d45 4dbc d10e 76bd
00000100: 0c11 2cbc 74b2 9a3b 2164 49bd 3319 79bb
00000110: 6fa7 28bb 2005 fe3c b8ea e23c 2fa3 5c3d
00000120: 52af 463b d0fd 7b3d b284 5e3d 2f7f f0ba
00000130: 30ce 3d3d 50c7 8fbd 969c 90bc ccd6 d23b
00000140: 43ed 24bd 37e8 74bd 6ab4 82bd 959c 9fbd
00000150: 1190 6bbd 051f 5ebd d98c dc3c 70ba 833c
00000160: a7c2 8dbd 845e 0cbd b7fe f9bc fbc1 7b3c
00000170: b665 04bd 04e3 ad3d e47a 91bc c791 88bd
00000180: 3723 aa3d d2d7 66bc c6c6 49bd 9c55 dbbc
00000190: c73c ebbc 050f 7a3c d9b6 e13c e2c7 a03c
000001a0: 21e0 633d efab 78bc 82c2 633d 3d78 693d
000001b0: 8b5a 0abc 1f9a 483d be6d 573d d35b 5c3c
000001c0: db66 833b efd6 3f3b 4a65 e53b 3c6e 763d
000001d0: f96f 963c ee8b fbbc 5f56 c7ba d87e 9ebc
000001e0: 6920 f9bc b1a7 73bd 9a5c 00bb f8ef 46ba
000001f0: 0a1c 0b3a c382 42bd 34cd 1abc 0d41 3abd
00000200: 7486 a4bc eff0 963c 8927 9bbd 957c 633c
00000210: dc73 1fbc af30 f5bb fb25 9abd ac49 1f3c
00000220: ead4 04bc a538 62bd e419 83bd d90a 39bb
00000230: a774 993c ddf2 39bd c9de 53bd bdc0 67bd
00000240: e7ae 81bc 557e 27bc ddfd 27bc 031a 5cbd
00000250: c45f 74bc 7e92 b7bb 6c0f 74bc 1381 30bd
00000260: b59d 4ebd 0083 81bd 44d4 75bc 7743 b13c
00000270: 85c7 3cbd 102d ce3a 71f3 32bd 19a3 8fbd
00000280: 3304 48bd ca82 2cbd c3a0 5dbd f8e4 8e3c
00000290: 50cb 90bd 033e 983b 0384 e3bc 743b 15bc
000002a0: 5fd7 93bd 59f2 69bd 51d7 4dbd 4b82 a73c
000002b0: 3b69 0ebc 4de6 cbbc d972 c8bc ce2f 44bc
000002c0: a12d 66bd 167a abbc c401 533c 9a0c 27bc
000002d0: d07b 9cbd 7e75 0cbd ef37 8abd ac20 9cbd
000002e0: 5297 1bbd d699 90bd d97f 76bd 48fe 9cbc
000002f0: a1e3 8bb8 3942 43bd edf3 85bd 5505 8cbd
00000300: 5108 debc 3385 47bd 3762 03bd a671 633b
00000310: 4bf9 1d3b fa3f 5ebc e1d1 25bd 0358 50bc
00000320: c39d 84bd 6bf2 7dbd 8a5d 2b3b 67e0 b33c
00000330: a94b d6bc 455a 6bbd aaec 2f3b 700f 34bd
00000340: 764d 773c 350c 5ebd 586a 9dbc 97cc 56bd
00000350: 7f22 42bd ddef 26bd a860 3abd 96d7 233c
00000360: 7a33 e4bb 3b7c 2dbd 6b08 1c3b caf3 80bd
00000370: 399e 0bbd 3e46 14bd 0587 4ebc b370 ae3c
00000380: 1ab9 5dbb c538 57bd d15b f6bc 13e4 c2bc
00000390: b3c3 7c3c 0fe1 80bd 6e63 aebc e742 8ebd
000003a0: 23ef 88bd 6fa1 3fbd 0459 153c be8a ebbb
000003b0: 342c 5b3c 5023 b8bc 81c3 7dbd d1c1 57bd
000003c0: 1790 7fbd 1c89 4a3c 8d9e 55bd bda4 7abd
000003d0: cab0 91bd 2469 78bc 147b 92bc 6222 97bd
000003e0: 8733 2cbd ab36 88bd 5e64 98bc aacb 9bbd
000003f0: c337 fabc a539 40bd 9359 94bd 330f 993c

fc.0.bias f4 [128]
0.015956946 -0.007631194 -0.101036325 -0.12046383 0.03027688 0.03831445 -0.09527634 -0.027202697
0.007954017 -0.03123834 -0.31780595 -0.15240827 -0.18454549 -0.0012242435 0.35398373 -0.254042
-0.086491145 -0.14585358 -0.06509017 -0.009452497 -0.02334594 -0.27031898 0.07830539 -0.0019519465
0.017794099 -0.12582959 0.0062889173 -0.05871249 0.015126654 0.009774674 -0.16013367 -0.14734966
-0.016642354 0.036668956 -0.017825354 -0.0137629155 0.024662524 -0.0022609988 0.021685932 -0.009975681
-0.1763507 -0.14557478 -0.16766867 0.71014494 -0.011924322 0.0008679573 0.030634718 -0.04619667
-0.053271234 -0.046231557 -0.19379598 0.6147509 -0.03221032 -0.14160715 0.018737135 -0.012657183
-0.10848255 -0.18789874 0.02711623 -0.07843269 -0.028709177 -0.059004847 -0.05467568 -0.21881692
-0.054683536 -0.017047428 0.0011753927 -0.04030674 -0.20158865 0.005178012 0.02665433 -0.010756091
-0.19959804 -0.044235248 -0.0607625 -0.047583885 0.018654337 -0.16838275 -0.22250643 -0.05164953
-0.072739765 0.0016124954 -0.074317895 0.036789287 -0.07173892 0.007266486 0.040931582 -0.11245236
-0.02216416 -0.24322864 0.041414484 -0.19343078 -0.03708161 -0.053218447 0.024997378 -0.14466526
-0.05505887 -0.027291251 -0.051657505 0.020948242 -0.15095544 0.0045009605 -0.15196928 -0.1464947
0.026021741 -0.26214543 0.007982914 -0.17290394 -0.0392799 -0.08945483 -0.06483384 -0.049551327
-0.011534844 -0.109205455 -0.057069693 0.013800064 -0.0007807821 -0.059004236 -0.052700236 -0.043202825
-0.17010719 -0.0034623346 -0.009541096 -0.14857584 -0.11070405 -0.04242861 -0.068740435 0.014477019
00000000: 24b8 823c 180f fabb 22ec cebd beb5 f6bd
00000010: 3807 f83c 9def 1c3d 3e20 c3bd 31d8 debc
00000020: 9151 023c 8ce7 ffbc 76b7 a2be ea10 1cbe
00000030: 7ef9 3cbe cc76 a0ba 5b3d b53e cb11 82be
00000040: 4522 b1bd a45a 15be ff4d 85bd a5de 1abc
00000050: fc3f bfbc 4067 8abe 945e a03d 75d8 ffba
00000060: eec4 913c 79d9 00be 4313 ce3b 827c 70bd
00000070: c9d5 773c f425 203c 15fa 23be d4e2 16be
00000080: 8c55 88bc 3032 163d 7a06 92bc da7d 61bc
00000090: 1009 ca3c 442d 14bb b2a6 b13c 0a71 23bc
000000a0: 4795 34be 8e11 15be 56b1 2bbe 0fcc 353f
000000b0: 3b5e 43bc a187 633a a9f5 fa3c b838 3dbd
000000c0: f032 5abd 4d5d 3dbd 7472 46be 5160 1d3f
000000d0: f8ee 03bd 7701 11be 9f7e 993c 1360 4fbc
000000e0: 192c debd 8768 40be db22 de3c 51a1 a0bd
000000f0: 822f ebbc 11af 71bd 9bf3 5fbd 8b11 60be
00000100: d8fb 5fbd 0ca7 8bbc a20f 9a3a ae18 25bd
00000110: 416d 4ebe 50ac a93b 2e5a da3c 513a 30bc
00000120: 6e63 4cbe 0530 35bd 19e2 78bd 52e7 42bd
00000130: fbd0 983c 876c 2cbe bad8 63be 758e 53bd
00000140: 96f8 94bd 5e5a d33a fb33 98bd 5db0 163d
00000150: dbeb 92bd b41b ee3b e0a7 273d 6c4d e6bd
00000160: 9d91 b5bc ee10 79be 3ca2 293d b812 46be
00000170: e3e2 17bd 96fb 59bd 4dc7 cc3c 2123 14be
00000180: 6985 61bd e791 dfbc d296 53bd a69b ab3c
00000190: 1094 1abe cb7c 933b d69d 1bbe b502 16be
000001a0: 8c2b d53c ed37 86be c5ca 023c bb0d 31be
000001b0: f6e3 20bd 1834 b7bd 9bc7 84bd 55f6 4abd
000001c0: a4fc 3cbc 1ca7 dfbd e9c1 69bd aa19 623c
000001d0: 66ad 4cba 6dae 71bd 34dc 57bd 72f5 30bd
000001e0: 9430 2ebe 56e8 62bb 4252 1cbc 4424 18be
000001f0: ceb8 e2bd 9fc9 2dbd c9c7 8cbd 0531 6d3c

fc.2.weight f4 [128, 128]
0.02307745 -0.017790511 -0.03507419 -0.0022023444 0.06969161 0.03758944 -0.10874339 -0.07896646
-0.011815026 -0.054495435 -0.0015139881 0.006562273 -0.02255959 -0.0605709 -0.040341116 -0.106519915
-0.03171921 -0.021385444 -0.044313468 0.028034665 0.045440428 -0.017008727 -0.012974759 -0.023967791
-0.055126674 -0.12218354 0.07805733 0.07536801 0.07970514 -0.08701323 -0.04306215 0.034022648
0.077904634 0.045627214 0.09072475 0.06409464 0.08025844 0.08684659 -0.07690277 0.07983329
-0.047407478 0.050889745 0.077279724 -0.04665 -0.031585187 0.07532011 -0.01185441 -0.0012810123
-0.0015024918 -0.027285695 0.051249374 -0.0672869 -0.024179406 -0.08798858 -0.014117666 0.011309981
-0.027622612 0.008993272 -0.024452426 -0.0064215064 0.07082548 -0.06623506 -0.081069954 -0.049506366
0.028342322 0.09325016 0.06546796 -0.05006835 -0.053789727 -0.016363986 -0.04479601 -0.019064106
-0.028242957 0.050640713 -0.03346172 0.045084782 -0.0009976395 -0.010912836 -0.057297662 -0.079356074
-0.029303808 0.026083395 -0.077395424 0.0024653361 0.043046005 0.009369672 -0.082768686 0.023226606
-0.0063760565 -0.085639 -0.057054587 -0.032564614 0.0243456 0.05591677 -0.05339336 0.0011919905
0.019364057 0.0065804496 0.051216114 -0.06618199 -0.03326391 -0.09069166 -0.018452207 -0.003289766
0.058419846 -0.02521699 0.012586104 0.038826965 0.06068393 -0.006815918 -0.051548515 0.042662658
0.049304508 -0.04424213 -0.0269765 0.0454384 0.0757194 -0.001579307 -0.019954445 0.028731972
0.04090642 0.039938398 0.06062346 0.005493723 0.0220935 0.03814982 0.034941442 -0.00049776584
0.083162524 -0.085041255 -0.059781853 0.00038770007 0.06307892 0.05416525 0.0494839 -0.01704619
0.065269016 -0.019738726 -0.072897114 -0.037730712 -0.028791463 0.073988475 -0.08572937 -0.052156683
0.018272288 0.047137316 -0.06306238 0.060156863 0.07690399 -0.07815872 -0.04977469 0.03352516
-0.03567698 -0.060437463 -0.055250186 0.038485326 -0.022605218 -0.06521921 -0.088113286 -0.02606788
0.01098796 0.0045934245 0.036136307 0.005028762 -0.03313837 -0.061044335 -0.027384125 0.08075132
-0.010978639 -0.054679524 0.014273488 0.040906537 -0.040468045 0.025169125 0.06445093 0.03872986
-0.05587517 0.016157575 0.07958672 -0.110150084 -0.008058761 -0.035537433 0.04534214 -0.014267772
-0.0106341615 0.055722993 -0.0064274287 -0.06805129 0.03248462 0.03287545 0.004106723 0.04957102
-0.0026456416 0.07770675 -0.031747915 -0.07512783 0.053657252 -0.08767922 0.07658581 0.08744418
-0.08925214 0.08564267 0.016043754 0.073391385 -0.046588197 -0.042471547 0.016724573 0.058714397
0.0011850446 -0.050478753 0.059096094 0.054591157 -0.08126869 0.07622338 0.0129169 0.06672587
0.027645111 -0.050729726 0.008313507 -0.04882218 0.06543457 0.033081517 -0.06297557 -0.08817136
0.05706229 0.039741494 -0.03712584 0.017478041 -0.026470972 -0.087286375 0.028215779 -0.07621472
-0.09204393 -0.109137364 -0.05163919 0.04585479 0.06886736 -0.043302048 0.048292663 -0.018618748
0.08014723 0.049401447 -0.0692739 0.042206623 -0.05315157 0.025896117 -0.029159866 0.034696527
-0.087021574 -0.008708045 -0.085432075 0.04501701 0.03540955 -0.044542644 0.08612662 0.06568845
00000000: ec0c bd3c 68bd 91bc f4a9 0fbd 3555 10bb
00000010: 7aba 8e3d 62f7 193d dbb4 debd 2bb9 a1bd
00000020: d093 41bc 9b36 5fbd 0371 c6ba 5608 d73b
00000030: e4ce b8bc 3119 78bd ba3c 25bd 1d27 dabd
00000040: 01ec 01bd 8730 afbc 0a82 35bd f4a8 e53c
00000050: be1f 3a3d e355 8bbc 1594 54bc 1a58 c4bc
00000060: 82cc 61bd 5d3b fabd 85dc 9f3d 8b5a 9a3d
00000070: 733c a33d fe33 b2bd f061 30bd 555b 0b3d
00000080: 778c 9f3d 9ae3 3a3d e6cd b93d 0d44 833d
00000090: 895e a43d a0dc b13d 337f 9dbd a37f a33d
000000a0: 582e 42bd c471 503d d544 9e3d 1214 3fbd
000000b0: 785f 01bd 6e41 9a3d 0039 42bc a4e7 a7ba
000000c0: 42ef c4ba 4086 dfbc ddea 513d b7cd 89bd
000000d0: e413 c6bc 5b33 b4bd c84d 67bc 804d 393c
000000e0: d148 e2bc 8458 133c 7450 c8bc 806b d2bb
000000f0: f30c 913d 3fa6 87bd 0108 a6bd 30c7 4abd
00000100: 282e e83c f1f9 be3d 1114 863d 7814 4dbd
00000110: 9e52 5cbd c40d 86bc 057c 37bd 542c 9cbc
00000120: c65d e7bc a36c 4f3d 280f 09bd d2aa 383d
00000130: 3ac3 82ba c0cb 32bc f4b0 6abd 7085 a2bd
00000140: 8a0e f0bc d8ac d53c 7e81 9ebd 7a91 213b
00000150: 0251 303d 4183 193c a182 a9bd b945 be3c
00000160: 3dee d0bb 8063 afbd 12b2 69bd 7962 05bd
00000170: 6c70 c73c fc08 653d ffb2 5abd 903c 9c3a
00000180: 5fa1 9e3c d0a0 d73b fdc7 513d 6c8a 87bd
00000190: bd3f 08bd 8dbc b9bd 1529 97bc 1d99 57bb
000001a0: a649 6f3d dc93 cebc f235 4e3c 0609 1f3d
000001b0: b68f 783d 1058 dfbb 8924 53bd 0abf 2e3d
000001c0: 86f3 493d 3c37 35bd d2fd dcbc 9e1d 3a3d
000001d0: c612 9b3d c000 cfba 8177 a3bc 505f eb3c
000001e0: 7e8d 273d 7296 233d 4e50 783d b004 b43b
000001f0: 6dfd b43c fc42 1c3d c21e 0f3d 807c 02ba
00000200: 1d51 aa3d 1c2a aebd d1dd 74bd 3944 cb39
00000210: 852f 813d 62dc 5d3d a1af 4a3d 74a4 8bbc
00000220: c3ab 853d 1cb3 a1bc 154b 95bd 858b 1abd
00000230: 13dc ebbc 4587 973d e192 afbd 3fa2 55bd
00000240: c4af 953c 0f13 413d d926 81bd 0b67 763d
00000250: d77f 9d3d ae11 a0bd 8ce0 4bbd ae51 093d
00000260: 0622 12bd 468d 77bd 054e 62bd caa2 1d3d
00000270: 942e b9bc a691 85bd bd74 b4bd 4f8c d5bc
00000280: d806 343c 7084 963b aa03 143d 50c8 a43b
00000290: 19bc 07bd a009 7abd ac54 e0bc f360 a53d
000002a0: c0df 33bc a3f7 5fbd 59db 693c 9d8d 273d
000002b0: d2c1 25bd 7b2f ce3c d9fe 833d 34a3 1e3d
000002c0: 5ddd 64bd e45c 843c 5dfe a23d 5e96 e1bd
000002d0: e508 04bc b38f 11bd aeb8 393d 60c3 69bc
000002e0: e83a 2ebc cb3d 643d 2e9d d2bb 7a5e 8bbd
000002f0: 980e 053d 68a8 063d b091 863b fb0a 4b3d
00000300: 8062 2dbb b724 9f3d 1a0a 02bd 9fdc 99bd
00000310: b5c7 5b3d 2a91 b3bd 05d9 9c3d ef15 b33d
00000320: d3c9 b6bd 6d65 af3d 316e 833c 394e 963d
00000330: 44d3 3ebd a5f6 2dbd f901 893c 827e 703d
00000340: 8053 9b3a cfc2 4ebd bf0e 723d fa9a 5f3d
00000350: 3370 a6bd 011b 9c3d 68a1 533c 93a7 883d
00000360: 0078 e23c f9c9 4fbd 6035 083c c4f9 47bd
00000370: 8f02 863d 7c80 073d 56f9 80bd 3093 b4bd
00000380: 26ba 693d fac7 223d 4411 18bd 1c2e 8f3c
00000390: a7d9 d8bc 33c3 b2bd c724 e73c 7716 9cbd
000003a0: 8781 bcbd 6983 dfbd 9e83 53bd 3bd2 3b3d
000003b0: 550a 8d3d 7d5d 31bd 87ce 453d 5886 98bc
000003c0: 3b24 a43d 2c59 4a3d 79df 8dbd dae0 2c3d
000003d0: 76b5 59bd 1824 d43c ace0 eebc f21d 0e3d
000003e0: 5e38 b2bd 30ac 0ebc 03f7 aebd c263 383d
000003f0: 9b09 113d 5972 36bd 2763 b03d ab87 863d

fc.2.bias f4 [128]
-0.0992654 -0.0056099384 -0.25553867 0.0045439578 -0.06485473 0.06652864 -0.07570231 0.2693155
-0.14993529 0.006891215 -0.047285855 -0.000544946 -0.06455223 -0.025982287 -0.034466144 0.33276248
-0.0030734795 -0.07990307 -0.051721714 -0.088470496 -0.03480369 0.17808372 0.29430446 1.1838378
0.39901087 -0.23593663 -0.01547156 -0.008079649 0.3742368 -0.08763424 -0.097129434 -0.10699052
-0.07980813 -0.09415484 -0.06671319 -0.025693903 -0.14618663 -0.10481887 0.2436116 -0.080895744
-0.027319185 -0.08637017 0.030337386 -0.08637709 -0.04921336 0.62506723 -0.036814846 -0.09223733
-0.07338 -0.11552536 -0.20637138 0.01666849 -0.13311246 0.002142631 -0.108468086 -0.0940412
0.09520797 -0.30577245 -0.00057717407 0.04843239 0.009264047 -0.08120484 -0.022668568 -0.06057369
-0.12036909 -0.076549634 -0.03041253 -0.10274324 -0.06100132 -0.0978651 -0.024764067 -0.052292444
-0.07659029 -0.029497202 -0.065437496 -0.10079715 -0.062259473 -0.110490136 -0.12666312 -0.07494729
-0.0730642 0.013295081 -0.09221322 -0.11386368 -0.107700914 -0.023272913 -0.07252253 -0.027823545
-0.056644928 0.13045272 -0.04819438 0.040145118 0.018835537 0.67982215 0.41867328 -0.1471308
0.07984751 -0.0011474484 -0.06896188 0.25528762 -0.08335782 -0.026176736 0.18391448 0.33021978
-0.22718573 0.011798147 -0.17342019 0.034714382 0.12743652 -0.029083226 -0.18957397 -0.05090934
-0.08374615 -0.13412473 -0.11376505 0.03293191 0.0282184 0.018725969 -0.025476525 -0.11136751
-0.1494949 0.70585907 0.34331805 -0.12755391 -0.06279837 -0.11751652 -0.025921881 -0.045137547
00000000: a84b cbbd 93d3 b7bb f7d5 82be 7be5 943b
00000010: 8fd2 84bd 2b40 883d d009 9bbd b9e3 893e
00000020: a388 19be b4cf e13b d0ae 41bd b5da 0eba
00000030: f633 84bd ced8 d4bc 5f2c 0dbd d85f aa3e
00000040: 6e6c 49bb 39a4 a3bd 26da 53bd 0530 b5bd
00000050: 508e 0ebd 945b 363e 13af 963e ff87 973f
00000060: 274b cc3e 5f99 71be 6d7c 7dbc 8160 04bc
00000070: f79b bf3e 9579 b3bd cceb c6bd d91d dbbd
00000080: 7272 a3bd 41d4 c0bd eda0 88bd 057c d2bc
00000090: f3b1 15be 47ab d6bd 5275 793e abac a5bd
000000a0: 7ccc dfbc d8e2 b0bd 1c86 f83c 79e6 b0bd
000000b0: f393 49bd 6804 203f 2acb 16bd ede6 bcbd
000000c0: 4148 96bd 8f98 ecbd 0553 53be 5b8c 883c
000000d0: a24e 08be 626b 0c3b 8424 debd ac98 c0bd
000000e0: 65fc c23d 358e 9cbe 7f4d 17ba 0b61 463d
000000f0: 3bc8 173c b94e a6bd 6fb3 b9bc 1e1c 78bd
00000100: 1284 f6bd 0ec6 9cbd b323 f9bc 0c6b d2bd
00000110: 85dc 79bd 7f6d c8bd 03de cabc 9a30 56bd
00000120: 5fdb 9cbd 1ea4 f1bc 1804 86bd bc6e cebd
00000130: ca03 7fbd a748 e2bd fab3 01be f77d 99bd
00000140: afa2 95bd 9dd3 593c 49da bcbd 5c31 e9bd
00000150: 4c92 dcbd d6a6 bebc b186 94bd 34ee e3bc
00000160: 8304 68bd 6695 053e 7867 45bd 356f 243d
00000170: fc4c 9a3c d308 2e3f 585c d63e 75a9 16be
00000180: 1787 a33d fb65 96ba e33b 8dbd 0fb5 823e
00000190: 81b7 aabd 9870 d6bc 1454 3c3e 9112 a93e
000001a0: 60a3 68be 044d 413c 1095 31be ab30 0e3d
000001b0: b87e 023e f23f eebc ae1f 42be 5086 50bd
000001c0: 1a83 abbd fe57 09be a7fd e8bd 9ce3 063d
000001d0: 462a e73c 3467 993c 25b4 d0bc a614 e4bd
000001e0: 3115 19be 2eb3 343f 62c7 af3e 7e9d 02be
000001f0: 6f9c 80bd 80ac f0bd 205a d4bc 26e2 38bd

fc.4.weight f4 [4, 128]
0.03247686 -0.029426489 0.24383229 -0.09041531 0.025345085 0.68716407 0.2563073 0.45198953
0.010588358 -0.03747073 0.09582433 0.053395893 -0.05958894 -0.013877635 -0.034476772 1.8203285
0.0820106 0.057327542 -0.045153495 0.10816923 0.0641407 1.1350126 0.3791573 1.7971295
1.9042306 1.1760495 0.015054276 0.1997053 0.5863814 0.054132666 -0.059213318 0.0008011247
0.1461538 0.9109018 0.08085417 0.011642079 0.05221604 0.12496339 0.8759023 0.01917186
0.072505474 0.14877199 -0.04097715 0.129915 0.064820886 2.0554056 -0.013770718 0.105871424
0.020570297 -0.0016116294 0.07981044 0.08447877 0.8495215 0.072842464 0.09969034 0.0054736794
0.24987465 0.408885 0.021061897 0.041341692 -0.030889131 0.072648436 0.14796285 -0.019782862
0.0042453003 0.014700359 0.14838657 0.22086175 -0.013098817 -0.023854446 -0.049229342 0.023489326
1.1031644 0.64674354 0.010392178 0.08521758 0.051988322 -0.00012625841 0.08786108 -0.70392
-0.037027262 0.08686148 0.027088175 0.01625931 -0.41417867 -0.029477345 0.6602887 0.08400771
0.8061605 0.18229951 0.012166872 0.06581665 0.036043596 0.5020717 0.56230825 0.07125216
0.32154804 0.041964304 0.13387372 0.96083134 -0.026763797 0.06732825 0.33386123 0.73191243
1.1789185 0.04919886 0.0021987387 0.080840096 0.93411344 -0.059954043 0.10953554 0.09934709
-0.022486446 -0.014830428 -0.0008475864 -0.003061016 0.07751744 0.14385599 0.19001696 0.0050576455
-0.009943025 0.77784365 0.65081084 0.08494996 -0.019620337 0.07804442 -0.07221624 0.009318014
-0.0058504106 -0.07250933 -0.2479818 0.0495016 0.03150779 0.7417104 -0.012572094 0.24299103
-0.0896823 -0.05295272 0.019719126 0.011154084 -0.004758892 0.06814275 -0.02355325 2.1470537
-0.02136106 -0.00044006822 0.03778724 -0.010996778 0.06878232 1.3069617 0.783074 1.6714908
1.2952399 1.0262227 0.12860276 0.32136977 0.9246066 -0.090845905 -0.026406597 0.07096673
0.057495095 0.98186195 0.054382272 -0.014963327 0.114640154 0.070230655 1.0040069 -0.053076755
-0.015829446 0.00828133 -0.017585224 0.007376839 0.07058064 1.3529805 0.040779814 0.101261705
0.0920216 0.019893158 -0.029869108 0.04684935 0.88174826 0.036713105 0.05489 0.09635407
0.21219145 0.4789189 0.016913882 0.068962656 0.10776674 0.089769796 0.043931242 -0.015770957
0.055347238 -0.058642503 0.07950065 0.17884311 -0.072985284 0.08668733 -0.021669298 -0.034811914
1.2484182 0.61145484 0.038039215 0.09410888 -0.07680794 -0.006819801 0.11902522 -0.756306
0.02574345 0.08254192 -0.015422269 -0.062361203 -0.63130164 0.07265122 0.3098407 -0.03552496
0.80408967 0.15069106 0.011764859 0.11059882 0.036517844 0.5920527 0.77950144 0.03047475
0.10686691 0.07960538 0.08712156 0.8317406 -0.013154095 0.07711829 0.47292933 0.82163113
1.095668 -0.04115219 0.012466323 0.09014806 0.9211804 0.037710305 0.09588999 -0.019025156
0.0046048053 -0.020497281 -0.027597655 0.046665568 0.09373796 0.05149561 0.19848031 -0.02476518
0.011776368 0.8253909 0.55720437 0.0272123 0.048528463 0.02343869 0.026121385 -0.013892125
00000000: 7506 053d d20f f1bc 2caf 793e a92b b9bd
00000010: 7fa0 cf3c fce9 2f3f b63a 833e 2c6b e73e
00000020: cb7a 2d3c e87a 19bd 8c3f c43d a7b5 5a3d
00000030: 8813 74bd 055f 63bc 8437 0dbd 8600 e93f
00000040: 2cf5 a73d 49d0 6a3d dff2 38bd d487 dd3d
00000050: 335c 833d 1848 913f e820 c23e 5708 e63f
00000060: d4bd f33f ca88 963f 36a6 763c 8c7f 4c3e
00000070: 171d 163f 37ba 5d3d aa89 72bd 9202 523a
00000080: 57a9 153e dc30 693f df96 a53d 6bbe 3e3c
00000090: 7de0 553d ceec ff3d 223b 603f 4e0e 9d3c
000000a0: c07d 943d af57 183e a8d7 27bd 7008 053e
000000b0: d0c0 843d c48b 0340 949e 61bc 1ed3 d83d
000000c0: 0a83 a83c 4f3d d3ba a873 a33d 3503 ad3d
000000d0: 3e7a 593f 6e2e 953d 732a cc3d 8d5c b33b
000000e0: 24df 7f3e 6059 d13e 008a ac3c e855 293d
000000f0: 340b fdbc b4c8 943d 9383 173e ab0f a2bc
00000100: 291c 8b3b c6d9 703c a6f2 173e 9529 623e
00000110: 6c9c 56bc 666a c3bc b5a4 49bd b06c c03c
00000120: 7e34 8d3f fc90 253f f443 2a3c 8e86 ae3d
00000130: b5f1 543d 3c64 04b9 83f0 b33d 1a34 34bf
00000140: e6a9 17bd 6ee4 b13d 05e8 dd3c 3f32 853c
00000150: 3a0f d4be 797a f1bc ae08 293f 3c0c ac3d
00000160: 8960 4e3f b9ac 3a3e 8f57 473c e1ca 863d
00000170: 73a2 133d c587 003f 6ff3 0f3f a7ec 913d
00000180: f2a1 a43e c3e2 2b3d 3116 093e 0bf9 753f
00000190: c03f dbbc 65e3 893d dcef aa3e 9d5e 3b3f
000001a0: cde6 963f be84 493d b718 103b 7e8f a53d
000001b0: 0f22 6f3f 5f92 75bd 2b54 e03d 7d76 cb3d
000001c0: 7f35 b8bc 53fb 72bc 8f30 5eba 549b 48bb
000001d0: 77c1 9e3d fc4e 133e ce93 423e 9bba a53b
000001e0: 12e8 22bc c320 473f 8a9b 263f 3ffa ad3d
000001f0: d4ba a0bc c1d5 9f3d 1ce6 93bd 95aa 183c
00000200: cdb4 bfbb c67f 94bd f1ee 7dbe 31c2 4a3d
00000210: 500e 013d bce0 3d3f 2ffb 4dbc a4d2 783e
00000220: 5bab b7bd f4e4 58bd 018a a13c 9ebf 363c
00000230: 7bf0 9bbb 6d8e 8b3d bff2 c0bc 5469 0940
00000240: 64fd aebc f5b8 e6b9 cbc6 1a3d d42b 34bc
00000250: bfdd 8c3d 854a a73f 8a77 483f 69f3 d53f
00000260: 6cca a53f 445b 833f 71b0 033e 948a a43e
00000270: 05b3 6c3f 6b0d babd a652 d8bc 0157 913d
00000280: fa7f 6b3d 4e5b 7b3f f2bf 5e3d be28 75bc
00000290: 75c8 ea3d 17d5 8f3d 4c83 803f 0367 59bd
000002a0: c1ac 81bc 6aae 073c e30e 90bc 69b9 f13b
000002b0: 958c 903d 772e ad3f bc08 273d 4c62 cf3d
000002c0: d275 bc3d faf6 a23c 0fb0 f4bc 1be5 3f3d
000002d0: 41ba 613f 7b60 163d 56d4 603d 4855 c53d
000002e0: b748 593e dc34 f53e fb8e 8a3c 4b3c 8d3d
000002f0: cfb4 dc3d 3ad9 b73d 3ff1 333d 1832 81bc
00000300: c9b3 623d 1f33 70bd 3dd1 a23d a622 373e
00000310: 4f79 95bd 2089 b13d d083 b1bc f096 0ebd
00000320: 2bcc 9f3f 4e88 1c3f 02cf 1b3d 28bc c03d
00000330: 7b4d 9dbd a378 dfbb 7fc3 f33d 459d 41bf
00000340: ede3 d23c bd0b a93d afad 7cbc 766e 7fbd
00000350: fc9c 21bf 2aca 943d 71a3 9e3e 9f82 11bd
00000360: d2d8 4d3f c24e 1a3e 65c1 403c a281 e23d
00000370: bc93 153d c490 173f 688d 473f 2fa6 f93c
00000380: 0add da3d 2508 a33d ca6c b23d f4ec 543f
00000390: 4684 57bc 32f0 9d3d cb23 f23e 6b56 523f
000003a0: d93e 8c3f 338f 28bd 8c3f 4c3c 8c9f b83d
000003b0: 7bd2 6b3f 1f76 1a3d f961 c43d a5da 9bbc
000003c0: e8e3 963b eae9 a7bc 7a14 e2bc 6524 3f3d
000003d0: b0f9 bf3d 10ed 523d 6c3e 4b3e 59e0 cabc
000003e0: abf1 403c d14c 533f f2a4 0e3f 54ec de3c
000003f0: c8c5 463d 7f02 c03c 84fc d53c cc9b 63bc

fc.4.bias f4 [4]
1.4839287 2.0238876 2.578261 2.134669
00000000: 60f1 bd3f 6087 0140 3a02 2540 6b9e 0840
