src/pacman_dqn.pth (torch, 276473 bytes, 6 tensors)

fc.0.weight f4 [128, 400]
000000 1d ea 27 3b e1 c3 18 3d f5 45 25 bc a6 a9 ba 3c
       0.002562172 0.03729618 -0.01008748 0.022785973
000010 ad 37 12 bd 76 83 0b bc 8a ee 81 3a 47 ba 64 3c
       -0.035697628 -0.008515229 0.0009913009 0.013960428
000020 4c 4f 8d bc 0f 49 e6 bc 22 03 97 3c fb d0 35 3b
       -0.017249726 -0.028111009 0.018434111 0.002774297
000030 f1 cb f9 3a f7 b5 62 3c bd d1 44 bc 68 14 79 3c
       0.0019057972 0.013837329 -0.012012896 0.015202619
000040 fd 90 31 bc 3f e2 3a 3c 7a f6 56 bd 0e 45 04 bd
       -0.010837791 0.01140648 -0.052481152 -0.03229242
000050 fc e2 e1 bc c2 e8 2a bd 8f 16 1c 3d 76 41 ee 3c
       -0.027574055 -0.04172588 0.03810745 0.029083949
000060 63 23 d3 bc b0 f4 bd 3c 6f 66 1d 3d 3c a8 ab 3c
       -0.02577371 0.023187965 0.038427766 0.020954244
000070 f4 f8 c8 ba db 09 a8 3b 06 4c 98 bc d3 ca 80 bc
       -0.0015332983 0.005128128 -0.018590938 -0.015721714
000080 8d dc 15 3d be f0 1f bd df fa 3f 3c 73 aa a4 3c
       0.036587287 -0.03904795 0.011717527 0.020100808
000090 db 35 9a bc 2b b9 1e bd a7 87 56 bc 5d 30 08 bd
       -0.018824508 -0.03875081 -0.0130938655 -0.033249248
0000a0 b7 71 1e 3c dc 96 90 bc d4 5d d7 3c b8 d7 8c bc
       0.009670666 -0.01765006 0.026289858 -0.017192706
0000b0 ee 64 8d 3c ba d1 4b bd 9d e4 02 bd 63 92 d5 bc
       0.017260041 -0.049760558 -0.031956304 -0.02607078
0000c0 3c ff 86 bc 20 7a 09 bd 34 be ce 3c 67 77 6f 3c
       -0.016479127 -0.033563733 0.02523718 0.01461587
0000d0 27 74 29 bd ca 51 76 3b df cf f0 bc 65 22 55 bd
       -0.041370537 0.0037585371 -0.029395996 -0.052034754
0000e0 1d 24 50 bd 70 be 3b bd b3 53 66 bc e9 c0 0f ba
       -0.05081569 -0.045835912 -0.014058041 -0.0005483763
0000f0 6d 9f 04 bd 8d 2e 2a bd 1c f6 eb bc 1b 9c 97 3c
       -0.032378603 -0.0415483 -0.028803878 0.018507054
000100 25 05 7c b9 33 01 c9 bc c2 c6 00 bb 5e 4c cd 3b
       -0.00024034509 -0.024536705 -0.001964972 0.006265207
000110 5f a0 b0 3c 97 03 a2 3c a4 bb f4 3c da ee 78 bc
       0.021560846 0.019777102 0.02987463 -0.015193665
000120 55 5f 94 bc 43 79 56 bd 1d 9f 10 bd 24 e8 a8 bc
       -0.018111864 -0.052361738 -0.035307992 -0.020618506
000130 fa 11 b6 bc 67 83 40 3c bf 90 01 3b b1 38 4b bb
       -0.022225369 0.011750079 0.0019770113 -0.0031009133
000140 b2 fa b9 3c 8b 3d b7 3c 9a 21 41 bd de 95 75 bc
       0.022702549 0.022368213 -0.047151186 -0.014989344
000150 08 13 db 3c 15 29 e0 bb 65 5f 95 bc f6 32 d3 bc
       0.026742473 -0.006840835 -0.018233964 -0.025781136
000160 f7 b9 1f 3d 11 88 11 bc b1 53 0f bc b4 72 0f bb
       0.03899571 -0.008882538 -0.008747981 -0.0021888437
000170 ad ed 48 bd 4b 47 08 3d e3 43 22 3d 36 7c 81 3c
       -0.04905479 0.033271115 0.039615523 0.015806299
000180 d1 57 2c bd ea 09 00 bd 11 cc 22 3d d8 b7 ce bc
       -0.042075936 -0.031259455 0.039745394 -0.025234148
000190 e8 27 d0 3c ab 13 ad 3b 3f ce c7 bb 6a f7 12 bd
       0.025409654 0.0052818856 -0.0060975845 -0.035880484
0001a0 25 30 22 bd 5d 67 0b bc b9 a0 fc 3c b0 b5 14 bd
       -0.039596695 -0.00850853 0.030838357 -0.036306083
0001b0 be 51 e4 3c 3c 4e ee bc e3 49 47 bd 5f 2f e7 bc
       0.027871009 -0.02909004 -0.04865445 -0.02822083
0001c0 69 37 1f bd e7 39 00 3c 18 43 8a bc 3b 3a a8 3c
       -0.038871203 0.007826305 -0.016877696 0.020535579
0001d0 4d ea 0b bd df 87 0b 3c d5 cd 16 3d 1b 23 e8 3c
       -0.034158994 0.008516281 0.03681739 0.028337052
0001e0 b3 6c f6 3c 71 a7 20 bd 8a 84 fe 3b de a8 f8 bb
       0.030081129 -0.039222185 0.0077672647 -0.00758849
0001f0 84 eb 18 bb 67 9a 62 3c f0 7a a7 bc 8c 05 6d 3b
       -0.0023333738 0.013830758 -0.020444363 0.0036166636
000200 1a d7 2e bd fb 13 23 bd bd ef 27 bc e3 af 74 bc
       -0.042685606 -0.039813977 -0.010250029 -0.014934513
000210 b7 f1 0b 3d e2 75 7a bb 3b 2d 58 bd 08 3c 6c bd
       0.034166064 -0.0038217236 -0.05277751 -0.057674438
000220 31 3f 37 bc 6b 12 06 3d 1a 87 b5 3c 87 c4 30 3c
       -0.0111845 0.03273241 0.022159148 0.010789043
000230 f1 fe 13 3d 9c 44 2f bd 10 bf 62 bd a0 75 6d bd
       0.036131803 -0.04279004 -0.055357993 -0.057973504
000240 d2 ec ba 3c 00 d1 4e bd 9e 44 06 bc 7c ef ea bc
       0.022818003 -0.050492287 -0.008195071 -0.028678648
000250 e2 86 93 3b b8 54 cc 3c e7 4a 28 3d cf 66 37 3c
       0.0045021633 0.02494274 0.041087057 0.011193945
000260 dd 4e 7d bc de 92 2e bd cb 02 4d bd 77 ce 2d 3c
       -0.015460697 -0.042620532 -0.05005149 0.010608307
000270 ef 0b 02 3d 07 8c 7b 3c 11 31 59 3c f6 7b 90 bc
       0.031749662 0.015353209 0.013256327 -0.017637234
000280 31 8b fd 3c a2 3c 53 38 d1 1e 0d 3d 40 0c 5b bd
       0.03095016 5.036279e-05 0.034453217 -0.05347848
000290 89 d6 f0 bc 42 d4 45 bd 9a 8c 3a bd 4d 85 1f bd
       -0.029399173 -0.048298128 -0.045544244 -0.038945485
0002a0 a1 d2 41 bb 59 d6 f9 3c da 29 6c bd 78 a3 c9 bc
       -0.0029575008 0.030497717 -0.0576571 -0.02461408
0002b0 c3 dc 11 3d 97 7f 54 3c 68 62 34 bd 8e 1f 98 3c
       0.035610925 0.012969873 -0.04403916 0.018569734
0002c0 92 55 85 bc 91 c8 5c bc 9b 1b 1f bd 5b 2b 53 bd
       -0.016276155 -0.013475553 -0.038844686 -0.05155502
0002d0 0f 9a 69 bd 6f 41 91 ba 7d 5b 49 bd 5c 48 fd bc
       -0.057031687 -0.0011082123 -0.049159516 -0.030918293
0002e0 1a 7b 64 bd 5a 07 4d bd d7 dc 56 3c ce 9e df ba
       -0.05578146 -0.05005584 0.013114176 -0.0017060877
0002f0 9b 77 eb 3c 81 55 0c 3d b5 d1 56 bd 09 4a 6c bc
       0.028743556 0.03426123 -0.052446086 -0.014421948
000300 40 10 5a bd 3f c3 fb bc 5c aa 25 bd b7 cc 54 bd
       -0.053238153 -0.030732749 -0.04044567 -0.051953044
000310 c4 b3 24 bd 32 ae 58 bd 42 c4 cc 3b ac 7a ff bc
       -0.0402105 -0.0529005 0.0062489817 -0.031186424
000320 82 86 b1 bc a6 96 a8 3c a4 74 d9 3c 28 e1 e5 3c
       -0.021670584 0.020579647 0.026544876 0.028061464
000330 82 13 c1 3c 92 b9 54 bd 40 6b 2d bd 21 68 12 3d
       0.023568872 -0.051934786 -0.04233861 0.035743836
000340 65 b6 49 bd 02 22 77 bb a7 98 85 bc a9 f2 24 bc
       -0.04924621 -0.003770948 -0.016308142 -0.01006762
000350 be 64 39 bd 89 61 29 bc 72 e1 37 bd c0 98 a8 bc
       -0.04526209 -0.010338196 -0.044892736 -0.02058065
000360 63 cb 72 bc 1c 24 b7 bc 60 09 d1 3c 8a 57 8f 3c
       -0.014818999 -0.022356085 0.025517166 0.017497797
000370 54 c3 00 bd 90 10 db bc ff 70 66 bd ee a5 a8 3c
       -0.03143628 -0.026741296 -0.056260105 0.020586934
000380 4a 85 45 bd 27 cb 20 3d f8 9c 84 bc b3 60 61 bd
       -0.048222817 0.03925624 -0.01618813 -0.05502386
000390 5d 84 c6 3c 1a 5f 31 39 af c5 87 bc 3f dd 5a bd
       0.024233038 0.00016915463 -0.016573755 -0.053433653
0003a0 54 a7 cd 3c 81 78 0e 3d c8 1b 40 bd d5 17 07 3d
       0.025104202 0.03478289 -0.046901494 0.032981712
0003b0 2b 48 41 bd 1d 50 3a bc f7 d8 03 3d db 9b 33 3b
       -0.047187965 -0.01137164 0.032189336 0.002740613
0003c0 9b 0a 36 3b 1b 05 1c 3d 02 d3 dc bc f4 49 d9 3c
       0.0027777317 0.038090806 -0.026956085 0.026524521
0003d0 d6 da b8 bc 26 7e af bc be 95 45 bd 3d 22 3c bc
       -0.022565287 -0.021422457 -0.04823851 -0.011482772
0003e0 f9 ae 18 3d c9 b3 ec bc 22 7a 88 3b 69 2f 17 3d
       0.037276242 -0.028894322 0.00416495 0.03691045
0003f0 5d 27 60 bd 45 b4 7f 3b e2 ab 48 bd 41 39 58 3c
       -0.05472504 0.003901736 -0.048992045 0.013197244

fc.0.bias f4 [128]
000000 fa 4a 50 bd 95 86 8e 3c aa 86 ed bd 9e d3 ab bd
       -0.050852753 0.017398158 -0.11597951 -0.08389972
000010 67 60 f7 bc c9 4f f9 bb f6 69 08 bd 34 9e 0f 3d
       -0.030197335 -0.007608388 -0.033304177 0.035062984
000020 bb 1d 23 bd cb f1 57 bc 8b 8f b9 be 89 72 b4 bc
       -0.039823275 -0.0131802065 -0.36242327 -0.02202727
000030 3c d9 7b 3b cd bb f2 bc 3c de 15 bd 74 c8 9b bb
       0.0038429042 -0.029630566 -0.036588892 -0.0047541205
000040 48 56 e4 3b 90 ff 30 bd 75 a2 c0 bd e3 48 02 bd
       0.0069682933 -0.043212473 -0.09405986 -0.03180779
000050 0b d3 c2 bc 78 fc 46 bd b8 41 21 bc 2a fc 3f 3c
       -0.023782274 -0.048580617 -0.009842329 0.011717835
000060 eb 7a f2 bd bd 6a 2d bd 34 b4 b7 bc 8a ec 92 bd
       -0.11839851 -0.04233812 -0.022424795 -0.071740225
000070 21 ae 30 bd 18 8c 1c 3d a6 7b cc bd b3 e8 a4 be
       -0.043134812 0.03821954 -0.099845216 -0.32208785
000080 50 1e 56 bd bb c8 1b 3d 89 34 24 bd a6 85 41 bd
       -0.052275002 0.03803323 -0.040089164 -0.047246598
000090 d9 5f 18 3d fe 8e f7 3c 7d 49 ea bb 50 cd a6 bc
       0.037200782 0.030219551 -0.0071498738 -0.020361573
0000a0 f9 55 cb bc 2d 4a 23 bd c6 80 66 bd 05 aa e4 bc
       -0.024821268 -0.03986566 -0.05627515 -0.027913103
0000b0 62 a6 03 3d b6 7c 9d bd 95 c7 1e 3d a4 8e 66 bd
       0.032141097 -0.07689802 0.038764555 -0.056288376
0000c0 96 9b 80 bd 87 a5 5a 3c f3 73 16 be c2 e8 3c bc
       -0.06279676 0.013345129 -0.14692669 -0.011530103
0000d0 d0 bf 45 3b f1 18 d4 bd 30 ca 26 bc 3e 41 83 bb
       0.0030174144 -0.1035632 -0.010180041 -0.00400558
0000e0 6e c3 9e bd 31 3a 24 bc 4f 6e a5 3c 4b ac 4c bc
       -0.07752119 -0.01002364 0.0201942 -0.01249225
0000f0 bf b7 81 3c 4a 6d 0b bd ac f6 52 bd b0 1c af bc
       0.015834687 -0.034039773 -0.051504776 -0.021375984
000100 bf c6 1c 3d 37 8b 9d bd 2d f8 35 bd ae a7 68 3c
       0.038275477 -0.07692569 -0.044426132 0.014200134
000110 ce 24 a6 bd 15 60 a7 bd df b9 9d bd 61 5a 87 3b
       -0.08112489 -0.08172623 -0.07701468 0.004130647
000120 f5 e0 17 3d 08 d5 18 bd fd 5f 5e 3b 86 0b f2 bc
       0.03707977 -0.037312537 0.0033931725 -0.02954651
000130 f5 b8 20 bd c4 c7 80 bc dd cb bd bd 13 4b 64 3b
       -0.03923889 -0.015720256 -0.092673995 0.0034834787
000140 a3 45 25 bd 90 e6 d3 3a 58 4f 8a bc b0 8d 38 bd
       -0.040349614 0.0016166735 -0.016883537 -0.045057
000150 c8 b0 ba bc 43 4b 8a bd 43 86 03 be 71 31 aa bc
       -0.022789374 -0.06752636 -0.12844186 -0.020775529
000160 47 03 a3 bd 40 c9 eb 3a 61 c5 9d 3c 69 cb 64 bc
       -0.079596095 0.0017989054 0.019259157 -0.013964512
000170 80 8d 08 be ad f3 11 bd 5c 05 b1 3c 5b 8c f3 3c
       -0.13335228 -0.035632778 0.021609 0.029730013
000180 6f e6 c1 bc 30 83 b8 3c 50 31 86 3b 2e 23 c8 bd
       -0.02366945 0.022523493 0.004095234 -0.09772335
000190 d7 72 95 bc 91 e7 11 bc 11 40 91 3c ff 43 b4 3b
       -0.018243236 -0.008905307 0.017730745 0.00550127
0001a0 99 6e c0 bd 0d 09 3b bd d5 25 c1 3c b7 28 33 3d
       -0.09396095 -0.04566293 0.02357761 0.04374
0001b0 f5 3b 1d bd bb 48 9b bd 98 76 f5 3c 1b 2d 49 bd
       -0.038387258 -0.075822316 0.029963776 -0.04911528
0001c0 e5 a2 3a bd 36 70 d0 bd 11 43 01 3d 6b 59 37 bc
       -0.045565505 -0.101776525 0.0315581 -0.0111907525
0001d0 a8 15 9a bd ee e3 77 3c 93 1a 94 be c3 93 4e bd
       -0.07523662 0.015130026 -0.28926525 -0.050433885
0001e0 e5 5e 17 3c 1d 55 37 bd ea 81 c9 3c 1c b0 8d bd
       0.009238933 -0.044758905 0.02459808 -0.06918356
0001f0 44 76 4b bd 8a c7 9f bd 06 91 19 bd 9e ab 04 bd
       -0.049673334 -0.07801731 -0.03749182 -0.03239023

fc.2.weight f4 [128, 128]
000000 6a 75 a7 bd 3e 71 3f 3d c1 81 cb bd 23 0e 44 bd
       -0.08176692 0.046738856 -0.09936858 -0.047865044
000010 3a fe 0d bd ca 4a 66 3d 3a dc 57 3d 17 77 99 3d
       -0.034666277 0.05622367 0.05270026 0.07493418
000020 b9 dd 9b 3d 27 59 39 bd 41 0c 6b bf d5 eb 82 bd
       0.076106496 -0.045251038 -0.9181557 -0.06392638
000030 3c ea 9a 3c 1c f1 32 bd a3 de aa 3d 15 53 a9 3d
       0.01891052 -0.04368697 0.08343246 0.082678
000040 13 98 b3 3d 3c d1 fe 3c c4 30 2c 3c 52 32 52 3d
       0.0876924 0.03110563 0.0105096735 0.05131752
000050 24 45 19 bd 58 21 48 bd 78 8c 89 3d 14 a9 02 bd
       -0.037419453 -0.048859924 0.067162454 -0.031899527
000060 4e 65 23 bd 22 52 5b 3d 22 68 dd bd 10 8a af 3b
       -0.039891534 0.053545125 -0.108108774 0.0053570345
000070 f6 b1 11 bd 6b dd 9b bd fa 78 14 be 06 3d 55 3c
       -0.035570107 -0.076105915 -0.14499274 0.013015037
000080 30 21 70 bd 80 8c 8a bb 20 b8 04 bd 80 5c 4f 3b
       -0.0586254 -0.0042281747 -0.032402158 0.0031640828
000090 f2 4d 5f 3d 67 93 9d bd 30 60 66 3c f1 91 dc bd
       0.054517694 -0.076941304 0.014061019 -0.107700236
0000a0 78 57 4f bc 37 be d3 3c 0e 3a 58 3d f8 a0 bf bc
       -0.0126551315 0.025847537 0.05278974 -0.023392186
0000b0 39 90 3e bd df 86 a0 39 6d cf a6 3d 2e 10 99 3c
       -0.04652426 0.00030618065 0.08145032 0.018684473
0000c0 8d 56 61 3d 8b e1 9e bd 46 9e b5 bd f6 01 f0 bd
       0.055014182 -0.07757863 -0.08868079 -0.11719124
0000d0 8c 45 c8 bc fe 6e 8b bd 08 53 22 bd 2f 3b 64 bd
       -0.024447225 -0.068082795 -0.039629966 -0.055720504
0000e0 eb 8f e0 bd 34 7d ca bc cf 52 91 3d 8b e4 8f 3d
       -0.1096495 -0.024717905 0.070958726 0.07026013
0000f0 5e 2c 71 3d 5f 77 c9 bd 5d 80 45 3d 2a f6 55 3d
       0.058880202 -0.09837221 0.04821812 0.052236713
000100 d7 4e 9f bd 8f fd 12 bc 1c b8 14 bd 3a 33 d9 bc
       -0.077787094 -0.008971586 -0.036308393 -0.026513685
000110 13 dc fa 3c e5 7b a0 3c 91 8b a1 bd 40 38 70 bc
       0.030622518 0.019590328 -0.07887948 -0.014661849
000120 bb 6e 00 bd 3f 08 52 3d 69 4a 92 3d 09 e0 98 bb
       -0.0313556 0.051277395 0.07143099 -0.004665379
000130 78 89 2a bd e4 0e 48 bd 4f 96 63 bc 70 37 eb 3b
       -0.041635007 -0.048842326 -0.013890817 0.0071782395
000140 f4 85 5c 3d 60 0f a5 bb 13 3e 9e bd 98 ba 28 3c
       0.053838685 -0.0050372332 -0.077266835 0.010298394
000150 80 7b 8e bd 35 40 45 3c 8f 39 28 be de 79 c8 bd
       -0.069571495 0.012039234 -0.16428207 -0.09788869
000160 04 8e 23 bd 11 98 ab 3d aa 09 69 3d a7 89 f1 bd
       -0.03993036 0.08378614 0.056893982 -0.11793833
000170 ed 18 04 3c 02 90 29 3d f6 0a 58 3d 99 d0 b2 3d
       0.008062583 0.041397102 0.05274483 0.08731193
000180 dc 00 0e 3d b3 9e 55 bd 3b cf b2 3d c5 ed de bd
       0.03466879 -0.0521533 0.08730932 -0.10885195
000190 d4 82 9b bd f2 9c 95 bd c0 7b e4 ba 6a f3 09 3e
       -0.07593313 -0.073053256 -0.00174319 0.13471761
0001a0 5e 65 b8 3b 76 c5 1f 3d e0 db 5b 3b 2e 60 a7 bd
       0.0056273183 0.039006673 0.0033547804 -0.08172642
0001b0 42 52 74 3d 61 3e ad bc 78 1a 51 3c f0 8e bf 3d
       0.05964876 -0.021147909 0.012762658 0.09353435
0001c0 f4 49 41 bd 29 ba db bd 35 00 ab bd ff 37 ce bc
       -0.047189668 -0.107288666 -0.08349649 -0.025173185
0001d0 0a db 9b 3d 5d 73 96 3d 42 b6 1b 3f 73 e9 80 3d
       0.07610138 0.073462225 0.6082498 0.06294527
0001e0 b8 c0 11 bd e6 b3 3d 3d e0 c5 06 bc 9a ae 23 bc
       -0.03558418 0.046314143 -0.008225888 -0.009990359
0001f0 6a 1d 72 3d 97 bf e1 bd 5e da 29 bd e4 d5 97 bd
       0.059110083 -0.11022871 -0.041468017 -0.07413843
000200 20 81 ab 3b 90 35 1b 3c d9 20 1d 3e 59 ec 09 3f
       0.0052338988 0.0094732195 0.15344562 0.5387626
000210 3e d6 36 3d 09 81 bf bd 53 4a 4a bd 6e e0 33 3d
       0.04463791 -0.093507834 -0.049387287 0.043915205
000220 82 af 30 bc e0 5c 01 3b 24 d3 89 3e 7f 0b a2 3d
       -0.010784032 0.0019739196 0.269189 0.07912349
000230 f8 f5 86 bc ab ad 48 3e 6d 73 30 bd aa 23 c7 3c
       -0.016474709 0.19597499 -0.04307883 0.024308998
000240 30 c8 2d bc 22 6a 7b 3d 60 d3 c9 3e 76 05 10 bc
       -0.01060681 0.061380513 0.3941908 -0.0087903645
000250 4e fa 1b 3e bc 16 c3 bc a3 e0 ed 3c 1e 7b 65 bd
       0.15232202 -0.023814552 0.02903778 -0.056025617
000260 54 61 8b 3d d5 eb 84 3c 68 fd ea 3d 59 e6 89 3d
       0.06805673 0.016225735 0.11474115 0.067333885
000270 20 06 0d bc b1 7c 97 3d c9 9a 68 3d 79 46 b9 ba
       -0.008607417 0.0739683 0.05678824 -0.0014135382
000280 08 de 94 3c 5f d1 a1 3d 00 48 e2 b8 70 b0 cf 3c
       0.018172279 0.079012625 -0.00010789931 0.025352687
000290 ff 13 88 3d 75 3f 97 3d 00 4e 2f b9 58 5c 17 3e
       0.06644439 0.0738515 -0.00016718358 0.1478132
0002a0 ea e7 a0 bd 36 a7 48 3d 06 74 37 bd 71 73 a9 bd
       -0.07856734 0.04898759 -0.044788383 -0.08273972
0002b0 a0 89 51 3b 8c e0 d3 3e 2a 57 8f bd c7 2a 8e 3e
       0.00319729 0.41382253 -0.06999047 0.27767012
0002c0 fc dd 8a 3e 08 12 3c bc 0e 42 66 3e 6f a6 06 3e
       0.27122486 -0.011478908 0.22486135 0.13149427
0002d0 02 68 94 bd 20 6f 49 3f 02 33 05 3d 4a 9f 70 3d
       -0.072464004 0.7868519 0.032519348 0.05874566
0002e0 ca 69 94 3e f8 d9 a9 bd b8 19 30 bd bc ff 91 bd
       0.2898696 -0.08293527 -0.042993277 -0.071288556
0002f0 35 c6 3e bd 04 33 84 3e 5d e4 b4 3e e4 61 b4 3c
       -0.046575744 0.25820172 0.35330477 0.022019334
000300 ce 61 91 bd 7d 6e 2b 3e dd fd 13 bd 0f 16 1b 3d
       -0.07098733 0.16741367 -0.036130775 0.037862834
000310 24 66 05 3d 7e 90 6a 3e 67 49 21 3d 23 ac b3 bd
       0.032568112 0.22906682 0.039376643 -0.08773067
000320 24 28 41 bd c0 cc 00 3e 84 61 8a bc fe 7a 25 3e
       -0.04715742 0.12578106 -0.016892202 0.16160199
000330 00 4b 07 bb 40 bc 8c bd 5d a5 a5 3d c0 b9 a7 3a
       -0.0020644069 -0.06871843 0.08088181 0.0012796447
000340 6b 46 8f 3e 75 84 b7 3b da 7d 93 bd 2d 02 f3 3d
       0.27983412 0.005600507 -0.07201739 0.11865649
000350 88 64 47 3e ca 7b 5f 3e d5 1c d2 3e ce 15 54 3e
       0.19471943 0.21824566 0.41037622 0.20711443
000360 69 cc 16 3f 80 0c dc 3c cb cd 42 bd 9a cc 26 3e
       0.58905655 0.02686143 -0.04755954 0.16288987
000370 8e c0 80 3e 14 89 9d 3c a1 04 19 3d f1 a9 80 3d
       0.25146908 0.019230403 0.03735793 0.06282414
000380 bc 82 cd 3c a8 d6 ea 3c ab bf ab 3d c2 92 25 3e
       0.025086753 0.02866681 0.08386167 0.16169265
000390 04 d3 bf 3c 10 d1 61 bd 92 73 1c 3d b6 99 aa 3c
       0.02341605 -0.05513102 0.038196154 0.020825248
0003a0 8c 17 eb 3d e1 1b d2 bd 6f 49 a9 3d e0 a6 0a 3b
       0.114791006 -0.10259224 0.082659595 0.0021156594
0003b0 38 ce 03 3c 40 4a e0 3d a4 9a 80 bd e1 76 f7 bb
       0.008044772 0.10951662 -0.06279495 -0.0075520133
0003c0 d6 b9 3b 3e 1c 17 a0 3e 97 78 b1 3d 83 c8 8d 3d
       0.1833261 0.3126763 0.08665579 0.0692301
0003d0 89 7c b0 3d 10 86 9d bd 77 bc 15 3f 21 7d 80 bc
       0.08617503 -0.07691586 0.584907 -0.015684666
0003e0 6e 60 86 3d 7d fc db 38 8c 2e 84 bd 60 90 0d 3d
       0.06561361 0.000104897634 -0.064541906 0.034561515
0003f0 69 0f 97 3d b4 18 e5 3e 77 72 5d 3e 51 cf 18 3c
       0.07375986 0.4474541 0.21625696 0.009326772

fc.2.bias f4 [128]
000000 20 5c 79 bf 6f 3d 07 bf 05 d8 5f c0 10 15 27 be
       -0.97406197 -0.52828115 -3.4975598 -0.16316628
000010 3e 5d 5f bc f7 f7 d7 be ed 71 82 bd d4 15 cc 40
       -0.0136330705 -0.4218137 -0.06369386 6.3776646
000020 d7 a0 8f c0 b2 8d 11 be 36 c3 80 be 8b 9d 1f c0
       -4.488384 -0.14214209 -0.25148934 -2.4939907
000030 a5 d2 61 c0 06 d1 e1 bf 3c c6 95 bf 6c e6 82 c0
       -3.5284817 -1.7641914 -1.1701121 -4.0906277
000040 b7 f5 43 c0 7c a8 8c be db 26 4c c0 95 4f f7 be
       -3.0618722 -0.27472293 -3.1898715 -0.48302904
000050 77 ed 4b be 09 3d cd bf 72 d5 64 bf 49 bb b6 be
       -0.19914804 -1.6034251 -0.8938819 -0.35689762
000060 95 db e3 be 25 1a 46 c0 aa 7e 8a c0 86 ec 45 be
       -0.44503465 -3.0953457 -4.327962 -0.19328508
000070 86 a5 c6 be 23 4a 84 c0 5c 94 18 bf fe af a2 be
       -0.3879816 -4.13405 -0.5960138 -0.31774896
000080 10 d9 9a 40 2c 11 26 40 d2 8e 3f bf 19 57 1a bf
       4.838997 2.594798 -0.748273 -0.6028915
000090 c7 6b 33 bf ec db ed bf fd 4f d5 bd 98 25 cf be
       -0.7008633 -1.858274 -0.10415647 -0.4045837
0000a0 1d bf 8f be 48 b7 97 c0 b2 86 5a bf 0c 9e a3 c0
       -0.28075495 -4.741123 -0.8536178 -5.113043
0000b0 ab 9c 2f be 04 46 86 c0 42 3b 16 bf fb 7f a3 bd
       -0.17149608 -4.196047 -0.5868417 -0.07983395
0000c0 a2 21 5e c0 bb a8 3d bf 1a 50 f7 bd fe 1d 2f be
       -3.4708028 -0.7408559 -0.12075825 -0.17101285
0000d0 3b 95 2d bf cf 1d c7 be dc 69 48 bf 41 27 18 bd
       -0.6780583 -0.3888993 -0.7828653 -0.03714681
0000e0 e6 59 23 be 19 8c b3 40 42 c1 20 bf f4 5c fb bf
       -0.15952262 5.610852 -0.6279489 -1.9637742
0000f0 ef 2a 22 c0 7b 67 79 be da 4b 4e bf 52 ca 7d 40
       -2.5338705 -0.24355881 -0.8058449 3.9654737
000100 7f 85 b1 be 25 04 9c c0 3b 0a b7 bd 61 72 9a c0
       -0.34672162 -4.875506 -0.08937498 -4.8264623
000110 22 6b 64 c0 40 22 aa be 7e 9d 17 bf a1 1e 5c be
       -3.5690389 -0.33229256 -0.5922469 -0.21496059
000120 a1 5b 9f c0 81 42 00 bd ca d0 9b bf 32 4a 72 bd
       -4.979935 -0.031313423 -1.2173092 -0.05915279
000130 74 c2 4d bf f2 6f 32 bf 06 8f 24 be 6b 65 53 be
       -0.80374837 -0.69702065 -0.16070184 -0.20644157
000140 45 c2 fe bd ca 83 15 bf 17 4b 4f bf 7b 85 9f bf
       -0.12439398 -0.5840422 -0.80973953 -1.246261
000150 17 15 59 bf 06 ed c7 bd f9 5c 3a bf 5d fd 1d c0
       -0.84797806 -0.097620055 -0.72798115 -2.468589
000160 3c 99 fe be 08 94 64 bf 50 f7 12 c0 78 36 2c bf
       -0.49726284 -0.8928838 -2.2963448 -0.6727061
000170 0c 03 a4 be 8f d8 d2 be a9 ab 23 be 5b 4b 67 bf
       -0.32033575 -0.41180846 -0.15983452 -0.9034936
000180 ea 23 80 be 7a fe 1e be 41 6c 66 be ed fc 58 c0
       -0.250274 -0.15526763 -0.22502233 -3.3904374
000190 85 a1 97 40 1f 5a 97 bf b6 fc c2 bf 37 5b 33 bf
       4.7384667 -1.1824378 -1.5233371 -0.7006106
0001a0 ce dc 55 bb e8 b4 39 be f5 7b 8c c0 9c c5 43 bf
       -0.003263283 -0.18135417 -4.3901315 -0.764734
0001b0 cb 0c f1 bd b1 1a 03 be 8f 38 d4 be e8 ec 56 c0
       -0.11770018 -0.1280315 -0.414494 -3.3582096
0001c0 7a 7e 9b 3f 68 f9 14 bf cb 3a bb be db 9c 6d bf
       1.2147973 -0.58193064 -0.36568293 -0.9281747
0001d0 f3 1a 13 c0 f5 e5 7f bf b0 4f 5d 40 c6 ca bc be
       -2.2985198 -0.9996026 3.4579887 -0.36873454
0001e0 15 f5 82 40 06 df 2e c0 9e e9 57 bf 7b a9 40 3f
       4.0924172 -2.7323623 -0.84340847 0.75258607
0001f0 c7 7b 01 bf 77 c3 1c 3f b5 b9 bb bd c4 d7 21 c0
       -0.50579494 0.61235756 -0.0916628 -2.5287943

fc.4.weight f4 [4, 128]
000000 56 35 2e 3f 69 f0 d6 3e c7 b9 4a 40 5b a0 e0 3d
       0.68050134 0.41980293 3.167589 0.109680854
000010 3f 39 58 be ae fc 48 3e 30 a5 4f bd cc 73 64 c0
       -0.21115588 0.1962764 -0.050694644 -3.5695677
000020 90 b9 67 40 34 01 82 3d a6 98 35 3e 54 6b 7e 3f
       3.6207008 0.06347886 0.17734012 0.9938252
000030 85 83 b2 3f 04 6a 29 3f f4 3c 6a 3d 74 d2 42 40
       1.3946387 0.6617739 0.057187036 3.044095
000040 fc e7 02 40 14 27 67 3f 45 09 11 40 33 b9 d2 3e
       2.0454092 0.90294003 2.2661908 0.4115692
000050 27 ef ad be d9 c8 1c 3f d5 e5 18 3e 9c 2f 2e 3f
       -0.3397152 0.6124397 0.14931424 0.68041396
000060 e8 a7 5b 3e 13 7e ea 3f cf 02 fd 3f 17 d0 89 3d
       0.2145077 1.8319725 1.9766482 0.06729143
000070 30 2c 1c 3e 89 e9 15 40 27 3e c7 bd b7 b3 2d 3e
       0.15251231 2.3423789 -0.097286515 0.16963087
000080 e4 57 d9 bf d2 e4 83 bf 86 b6 1f 3e 7a be 8d bd
       -1.6979947 -1.0304205 0.15596971 -0.06921096
000090 9b 32 b0 3e 6e 39 59 3f d1 a0 85 3d 46 ee e8 3d
       0.3441361 0.84853256 0.06524814 0.11373572
0000a0 03 82 13 3e 9a a9 34 40 34 71 dd 3e 01 e6 3c 40
       0.14405064 2.8228517 0.4325043 2.9515383
0000b0 82 b2 99 bc e9 15 15 40 7b 26 22 3e dd 20 96 bd
       -0.018761877 2.3294623 0.15834992 -0.07330487
0000c0 a6 e6 13 40 6e 86 a8 3e 85 d1 04 3e a5 cb f7 bc
       2.3109527 0.32915062 0.1297055 -0.030248472
0000d0 eb 94 ad 3e d0 a1 46 3e 68 15 6c 3e ba b0 29 3e
       0.33902678 0.19397664 0.23055041 0.16571322
0000e0 13 9f 80 bd cd ce 1b c0 cf 5d 7c 3d 40 ac 98 3f
       -0.06280341 -2.434497 0.0616129 1.1927567
0000f0 36 a5 a3 3f 88 19 38 bb f7 d8 c7 3e 54 73 a7 bf
       1.2784793 -0.002809139 0.3903272 -1.308207
000100 09 0c a8 3e 0f 20 89 40 f6 7f 96 bd aa d1 7e 40
       0.32821682 4.2851634 -0.07348625 3.9815469
000110 b4 d7 19 40 10 3e 46 3f 15 88 0c 3e f6 e3 59 3f
       2.4037905 0.7743845 0.13723786 0.85113466
000120 07 93 8b 40 f7 f6 98 3d ef 37 57 3e f5 86 ff 3d
       4.3616977 0.0746898 0.2101743 0.12476913
000130 b1 48 ba 3e a2 25 16 3f 15 f4 14 3d 61 fe a0 be
       0.36383584 0.58651173 0.036365587 -0.31444076
000140 69 2d 67 bd d7 72 36 3f 9a 66 b6 3e 32 a8 9c bd
       -0.05643979 0.7126898 0.35625154 -0.07649268
000150 77 8d 01 3f 22 aa 83 bd 62 39 81 3e c8 40 9a 3f
       0.50606483 -0.06428935 0.25239092 1.205102
000160 82 68 0d 3f 74 ff 90 3f 98 15 97 3f 25 34 b1 3e
       0.5523759 1.1327958 1.1803465 0.34610096
000170 db 3e 16 3e c0 a4 ff 3d e8 78 1d 3c 4f 65 3f 3e
       0.14672415 0.124825954 0.009611346 0.1869099
000180 6b c0 93 3f 14 51 20 3d 3a 7d 8e ba 86 1e 1e 40
       1.1543096 0.039139822 -0.0010871061 2.470613
000190 79 76 c1 bf ca d7 22 3f 87 4d 23 3f 25 6e 39 3f
       -1.511428 0.6361052 0.6379017 0.7243369
0001a0 20 f6 d3 3e 33 71 bc 3c e8 53 57 40 18 33 ab 3e
       0.41398716 0.023003196 3.3644962 0.3343742
0001b0 a3 0f 96 bc 00 05 c3 bd 38 08 1b 3e 60 ec f5 3f
       -0.018318003 -0.09522438 0.15139854 1.9212761
0001c0 66 67 6d be d0 c7 d6 3e fd bb 61 3e 9d ee e6 3e
       -0.23183975 0.4194932 0.22044368 0.45103922
0001d0 bd 5b eb 3d 2c 99 d8 3e 43 0d ab bf 66 2f 04 3e
       0.11492107 0.4230436 -1.3363422 0.12908706
0001e0 a5 2c 35 c0 af 52 ae 3f fc 22 cc 3e 04 32 b9 be
       -2.83085 1.3618983 0.3987044 -0.3617097
0001f0 1a 84 2d 3e 33 58 f8 3f f2 ac 6e bd 9f d3 a4 3f
       0.16944924 1.9401916 -0.058270402 1.2877082
000200 52 91 f6 3e 6b c3 b9 3e bf 7e 34 40 e4 ad d3 3d
       0.48157746 0.36281905 2.820236 0.103359014
000210 43 82 70 3d 49 23 ea bc 29 65 04 bd aa e4 69 c0
       0.058717977 -0.028581278 -0.032323036 -3.6545815
000220 d0 35 c7 40 cf c9 28 3d 0a 90 cf 3c 01 d0 a2 3f
       6.225319 0.041208085 0.025337238 1.2719728
000230 e2 e3 81 3f 31 14 1d 3f 4a aa 71 bb 60 02 ce 40
       1.0147669 0.61358935 -0.0036875182 6.43779
000240 fb 4f 05 40 bc 3a f6 3e 44 51 0b 40 7a 8d f3 bd
       2.0830066 0.48091686 2.176835 -0.11892219
000250 a8 04 13 bf e2 58 fe 3e 6a d0 cd bd 35 8d ac 3e
       -0.5742898 0.49677187 -0.100495175 0.33701482
000260 03 1d 9b 3d 37 b1 b9 3f 35 2c 07 40 65 50 4d bd
       0.07573893 1.4507207 2.1120732 -0.0501255
000270 5b ab 48 bc 5b 6d a8 40 8d ff fd be 7b 33 95 3b
       -0.012247886 5.263349 -0.49609032 0.004553256
000280 b3 e0 97 bf 55 c4 c3 bf be 28 61 bc 7c d3 ba be
       -1.1865448 -1.5294291 -0.013742624 -0.36489475
000290 a7 f7 1c 3e 61 c2 27 3f be e3 7d bd 21 9a 00 bd
       0.15328847 0.65530974 -0.06198477 -0.03139699
0002a0 90 69 d4 bc ba 47 f9 3f 75 c5 fd 3d bb 82 27 40
       -0.025929242 1.9475014 0.123911776 2.6173542
0002b0 d9 09 55 3c 4e 4e 76 3f 17 c1 b7 3d c1 dd a4 bd
       0.013002836 0.96213233 0.08972376 -0.08050109
0002c0 38 2f 28 40 cc 05 2d 3e 9f e4 ec 3c 52 b8 c5 bc
       2.627882 0.16896743 0.028917609 -0.024135742
0002d0 f1 b2 6d 3e f2 c8 59 3d 24 2b 11 be 9f 46 c9 3c
       0.23212792 0.053170152 -0.14176613 0.024569808
0002e0 7d bf 02 3e 39 13 49 c0 ec 11 4a 3e c5 a7 0f 3f
       0.1276836 -3.1417983 0.19733399 0.5611537
0002f0 a0 fa b4 3f a9 e1 d6 bc b2 2f 10 3e 6e 1f 87 bf
       1.4138985 -0.02623065 0.14080694 -1.0556467
000300 01 72 2a 3d 14 12 a1 40 8c c5 df 3b 0c b9 05 41
       0.04161263 5.033457 0.0068289693 8.357677
000310 73 10 0c 40 13 dd 1e 3f d6 d0 2f 3c 73 1b d5 3e
       2.188504 0.6205608 0.010730943 0.41622505
000320 02 7e a6 40 b4 a6 0f be 04 52 bd 3d 35 5a db bc
       5.202882 -0.14028436 0.09244159 -0.026776413
000330 58 d3 cd 3c ab d7 84 3e bb cc bb bc 47 fc 15 be
       0.02512519 0.25945792 -0.022924772 -0.14647017
000340 5f da bb 3c 16 0b 66 3f b0 c5 85 3e 67 d1 f4 bd
       0.022931276 0.89860666 0.26127386 -0.11954003
000350 29 78 ea 3e e0 68 3b 3d 5e 37 1a 3e 85 f6 28 3f
       0.457948 0.045754313 0.15060183 0.6600116
000360 dc 3e 4a 3f 2a 74 9e 3e eb 54 61 3f 0e 8f 57 3e
       0.79002166 0.30948 0.880202 0.21050665
000370 4b 7c cf 3e 76 11 ac bb c2 f1 28 3d d6 10 62 3c
       0.40524516 -0.005251105 0.041246183 0.013797959
000380 1e 6d 5c 3f e5 9a 48 bd f4 66 c9 3c fb 37 16 40
       0.86104 -0.048975844 0.024585225 2.3471668
000390 6b 5b dc bf da 25 f3 3e 1c d4 0c 3f b3 c1 39 3f
       -1.7215399 0.47489816 0.55011153 0.72561187
0003a0 12 72 25 3f db ff bf bc 98 e5 39 40 6e d1 9c 3e
       0.6462718 -0.023437431 2.9046383 0.30628532
0003b0 22 e7 c2 bc 4a c2 61 3d 51 34 70 bb 9c 3d b6 3f
       -0.023791853 0.05511693 -0.0036652277 1.4237552
0003c0 51 16 9d 3e 24 e1 3d 3f bd 1e 33 3d d6 23 6c 3e
       0.3068109 0.7417166 0.043730486 0.23060545
0003d0 c2 2c 25 be 02 47 97 3e 36 ce 7a bf 72 5a cc 3c
       -0.16130355 0.29546362 -0.979709 0.024945471
0003e0 1b 63 26 c0 67 82 b1 3f fb 8b 44 3e 73 b4 20 be
       -2.599799 1.3867921 0.19194023 -0.15693836
0003f0 e1 6e 9b bc 57 d3 02 40 14 4f c8 bc e2 18 b4 3f
       -0.01897377 2.0441492 -0.02445177 1.4070094

fc.4.bias f4 [4]
000000 f0 c8 ef bf 1a 76 9f bf 85 a7 78 bf 5b 57 8f bf
       -1.8733196 -1.2457917 -0.97130615 -1.1198534
